compile/results/parking-concrete-4d-state1/model.pth (torch, 407707 bytes, 45 tensors)

encoder_embed_state.0.weight f4 [32, 12]
000000 00 2a 4f bb f8 8c 1d 3e 59 45 72 be ed 91 5a be
       -0.0031610727 0.15385807 -0.23659267 -0.21344729
000010 69 a8 e1 bd 0c 7d 9c 3d f8 a6 9a bb 83 5b 69 3e
       -0.1101845 0.07641038 -0.0047196113 0.22788815
000020 40 dd d1 bc d4 70 9c 3d 9e ab b2 bd 63 84 6c bd
       -0.025618196 0.07638708 -0.0872414 -0.05774344
000030 c8 b6 8d be f0 cb 44 be cb c1 f5 bd b9 d1 1e 3c
       -0.27678514 -0.19218421 -0.11999854 0.009693556
000040 44 ad e7 3d 42 58 30 3e f2 6c 49 be 73 bf 01 be
       0.11312345 0.17221168 -0.19670466 -0.12670688
000050 84 bc d6 3d 28 77 75 3e 44 57 73 bd f3 2d 5c 3e
       0.10485175 0.23971236 -0.059409395 0.21501903
000060 11 ae 42 bd c2 0b f2 3c ad 51 85 3e 8a 9f 89 be
       -0.047529284 0.029546622 0.26038876 -0.2687953
000070 d6 11 39 be 8b b8 97 bd fb 67 e4 bd 6f 36 80 3e
       -0.1807321 -0.07408246 -0.11152645 0.2504153
000080 a4 9a 3f be 70 13 08 be 3c 85 4e be ce e9 89 be
       -0.18711334 -0.13288665 -0.20168012 -0.2693619
000090 31 88 2b be b8 13 7d 3e 78 ed 04 3e 31 3f 0e 3e
       -0.16751172 0.24714553 0.12981212 0.13891293
0000a0 c5 8f 84 3c 2a 93 18 be 37 24 4c 3d 6e 7d 89 be
       0.016181836 -0.14899889 0.049839225 -0.26853508
0000b0 ce 97 55 be 73 64 18 be e2 81 3a 3e a9 57 2e 3e
       -0.2085869 -0.14882068 0.18213609 0.17025627
0000c0 a8 1e 04 be 54 07 3b bc 8b 14 3e 3e 2c 6c 92 3e
       -0.1290232 -0.011415321 0.18562524 0.28598154
0000d0 f3 af ec 3d d1 a3 1b 3d b5 38 47 3e 2e 13 2f be
       0.11556997 0.037998024 0.19455226 -0.1709716
0000e0 f0 55 5c 3d d2 2e 65 be ea e0 4c be 4a ba 19 be
       0.053792894 -0.22381142 -0.20007673 -0.1501247
0000f0 bb c6 06 3e b4 ce ef 3d d0 13 2e be db a7 b4 3d
       0.13161747 0.11709347 -0.16999745 0.088210784
000100 4b 4d 23 3e 31 25 11 bd f8 f7 44 3c 7d 08 8b 3d
       0.15947454 -0.03543586 0.012022011 0.067887284
000110 a8 62 37 3e 16 eb 8d 3e 84 cc 63 be 84 9c d6 bd
       0.17908728 0.2771842 -0.22245985 -0.10479072
000120 de 65 ea 3d 60 e6 73 3e 4d 21 81 3e 00 ed 82 3e
       0.11445211 0.2381835 0.2522072 0.25571442
000130 c1 69 6f 3d 87 03 80 be d2 bc e1 3c 4c e8 37 be
       0.058450464 -0.2500269 0.027555857 -0.17959708
000140 8f be 89 be 18 52 83 3e d0 c3 60 3e a0 ec 92 be
       -0.26903197 0.2564857 0.21949697 -0.28696156
000150 ad 67 61 3d fe 18 43 bd bc 7b 3e bd 5e 4a 06 be
       0.055030514 -0.047631256 -0.04650472 -0.13114306
000160 6c 66 e5 3d 5d 1c 30 be 6e c7 da 3d 50 83 16 3e
       0.11201176 -0.1719832 0.106825694 0.14698529
000170 30 9d 53 3e 0c 0f dd 3d d6 48 92 be a4 bb 3e be
       0.20665431 0.107938856 -0.28571194 -0.18626267
000180 b6 93 12 3e 64 93 7b 3d 92 9e 67 be af 30 29 be
       0.1431416 0.06141986 -0.22619084 -0.16522478
000190 47 88 8a 3e ef 34 48 3e 15 ea 01 be 6f d8 96 bd
       0.27057096 0.19551443 -0.12686951 -0.073655
0001a0 ac cb 8c be c0 05 aa bb 52 9b 5e be 23 0a 65 be
       -0.2749914 -0.0051886737 -0.21738937 -0.22367148
0001b0 5a 38 74 bc fe a0 35 3d ad 11 f0 bd aa 6d 30 3e
       -0.014906013 0.044342987 -0.117221214 0.17229334
0001c0 b9 dc 32 be 70 9f 86 3e d3 99 4b 3e dc 40 78 be
       -0.17467012 0.26293516 0.19882898 -0.24243492
0001d0 5e 24 93 bd 20 6a 55 3c f0 83 2c 3d 58 44 8e 3d
       -0.07184671 0.01302579 0.042118013 0.06946629
0001e0 cf 0d ea 3d 24 c4 95 3c 9a 35 0f be 74 e6 0c 3e
       0.11428415 0.018282004 -0.13985291 0.13759786
0001f0 3f 44 8d be a7 2e 2e be e5 f2 91 bd fa f7 0e be
       -0.2759113 -0.17009984 -0.071264066 -0.13961783
000200 e6 d2 ce bd 6c 48 72 be 68 84 7b bd 10 6c 80 3d
       -0.100988194 -0.23660439 -0.06140557 0.06270611
000210 6f 99 41 be 4c 8b 81 bc bd a1 54 3e ed 4b fb bc
       -0.18906187 -0.015813492 0.20764823 -0.030675853
000220 99 d1 13 3c e6 33 d4 bc 01 35 6b 3d e4 fa 3c 3e
       0.00902214 -0.025903653 0.057423595 0.18455082
000230 2c 01 8c 3e 82 b9 3b 3e 2c 53 8c 3e 1a d6 a2 bc
       0.27344644 0.18332484 0.27407205 -0.019877482
000240 fb 42 84 be 7d 1d 0b be 42 4d 4a 3e 54 6d 64 ba
       -0.25832352 -0.13585468 0.19756034 -0.0008713801
000250 d6 f3 13 be 1a 80 61 be d8 d4 8a be f0 82 7a be
       -0.14448485 -0.22021523 -0.27115512 -0.24464011
000260 3c d6 6f bd 54 1c 22 3e b8 d0 1f 3e 6c 0e 8f be
       -0.05855392 0.15831119 0.15606964 -0.2794069
000270 4a 6a 39 3e de 49 66 be 02 12 7e bd 8f ab ed bd
       0.18106952 -0.22489116 -0.062028892 -0.11604988
000280 c8 d8 67 bd f0 0f 64 bd 4d 24 85 be 15 36 7e be
       -0.056603223 -0.05567926 -0.26004258 -0.24825318
000290 00 06 39 bd 80 a8 74 3b 01 49 06 be 4b c1 e0 3d
       -0.045171738 0.003733188 -0.13113786 0.10974368
0002a0 ab 84 84 be e6 67 97 bc dc 7d 82 3e ba 19 ef bd
       -0.25882468 -0.01848216 0.25486648 -0.11674829
0002b0 34 fa 85 3e db 27 d8 3d 90 df 84 be 15 0d 3c 3e
       0.26167452 0.10554477 -0.25951815 0.18364365
0002c0 a8 71 08 bd 98 f5 03 be 54 61 6c 3e 08 da 6d be
       -0.033311516 -0.12886655 0.23084003 -0.23227704
0002d0 60 f9 02 3d 21 77 73 bd f3 11 52 3e 80 14 a7 3d
       0.031976104 -0.059439782 0.2051466 0.08158207
0002e0 d9 03 0d 3e 7f d6 d2 3d 4f 37 90 bd 4b c3 7c bd
       0.13770999 0.10294818 -0.07041799 -0.061709683
0002f0 e9 99 73 be c2 2b 20 3e dc b3 6a 3e 36 3c 49 3e
       -0.23789181 0.15641692 0.22920173 0.19651875
000300 22 84 4f be 36 92 42 3c 5f 5b 4f be b8 bf 23 be
       -0.20265248 0.01187568 -0.20249699 -0.15991104
000310 d1 39 2b be 80 fe c7 3d 61 21 2f be ae 15 ef bb
       -0.16721274 0.09765339 -0.17102577 -0.0072962856
000320 c0 f7 46 3c 80 8d 3e 3e d6 73 5f be 84 f5 4b be
       0.012144029 0.18608665 -0.21821532 -0.19917876
000330 24 9f 2a be 30 ed 4f 3e 5b 78 d2 bd b0 5c 7a 3e
       -0.1666227 0.20305324 -0.10276862 0.2444942
000340 2c d5 d7 3d f7 d1 19 3d da 98 96 ba 5c a5 65 bd
       0.10538706 0.037553754 -0.0011489645 -0.056065902
000350 60 5a 14 3d b8 ff 86 bd 00 ee 04 bb ad f6 1a 3d
       0.036219 -0.06591743 -0.002028346 0.037832905
000360 d3 32 66 be 75 e9 19 be b9 b8 6f 3e 39 df 6e be
       -0.22480325 -0.15030463 0.2341031 -0.2332734
000370 ff 9d a1 bc 19 b9 92 3e 17 9d d7 3d b3 49 16 3c
       -0.019728659 0.28656843 0.105280094 0.009172845
000380 1e 16 80 be 74 6f 12 3e 75 8d 52 be 4a c6 a5 bd
       -0.25016874 0.14300328 -0.20561774 -0.08094461
000390 b6 67 c8 bd 0e 32 33 bd 13 3b 88 3b b8 ca 72 3e
       -0.09785406 -0.043748908 0.004157433 0.23710144
0003a0 e8 83 0f 3d 76 df 83 3e eb cc 33 3e 8d e8 3b be
       0.035037905 0.25756425 0.17558639 -0.1835043
0003b0 4e 94 04 3e f9 f5 50 be 78 91 fa bd dd d6 ab 3d
       0.12947199 -0.20406331 -0.12234777 0.08390591
0003c0 fc 29 c1 3d f9 be 5c 3e e4 5d c0 bd 8c 00 0d ba
       0.09431836 0.21557225 -0.09392908 -0.00053788046
0003d0 e4 28 17 3e 28 73 8f be f7 bc 56 3e 05 77 75 be
       0.14761692 -0.28017545 0.20970522 -0.23971184
0003e0 80 5f 82 3b b4 07 49 bd b0 af 1b be 50 2f 18 3d
       0.0039786696 -0.049079612 -0.15203738 0.037154496
0003f0 b6 76 75 3e 50 c6 aa bd 56 79 2e be 76 9a d8 bd
       0.23971066 -0.08338606 -0.17038473 -0.10576336

encoder_embed_state.0.bias f4 [32]
000000 5a a1 c5 3d e8 3d 93 3e ad 57 1a 3e c2 bc 36 3e
       0.09649916 0.28758168 0.15072508 0.17845443
000010 c9 de cc bd d5 dc 0e 3e 8a f6 0b 3d 06 3d 8f bd
       -0.100034304 0.13951428 0.034170665 -0.06994061
000020 4b 9c 25 be 53 e4 26 be 2e 7c 64 be 69 6c 45 3e
       -0.16172902 -0.16298036 -0.22312996 0.19279636
000030 30 21 51 3e 48 7a 02 bd 9d 09 2a be 58 7f 65 3e
       0.20422816 -0.031854898 -0.1660523 0.22411859
000040 16 0f 3e 3e a5 fa b7 3c 71 8a 0a be 26 53 87 3e
       0.18560442 0.022458384 -0.13529374 0.26430625
000050 01 d1 f3 3d 0e 6e 61 be 6e f8 8d 3e 10 73 5f 3e
       0.11905099 -0.22014639 0.277286 0.21821237
000060 06 71 d5 bd e1 32 27 3e 4e ef 26 be a4 65 3d bd
       -0.10421948 0.16328003 -0.16302225 -0.04623951
000070 68 05 7c 3e 2b cf 53 3c 35 08 50 be 13 a6 c7 bd
       0.24611437 0.012927811 -0.2031563 -0.09748473

encoder_embed_state.2.weight f4 [32, 32]
000000 a6 a4 48 bd 93 ca 0f bd c0 65 82 3c 58 63 26 3e
       -0.048985146 -0.0351053 0.015917659 0.16248834
000010 8f af 0a 3c c6 95 e1 bd a4 10 04 3c 83 8b ab 3d
       0.008464708 -0.11014895 0.008060608 0.08376219
000020 ae 89 b1 3d ea 76 26 be e7 f1 fa bc 29 8c 07 be
       0.086688384 -0.162563 -0.030632926 -0.1323706
000030 4d 86 9c bd 69 64 80 3d 2c 92 01 be 13 88 84 3d
       -0.07642803 0.06269152 -0.12653416 0.064712666
000040 0d 9f 18 3e 92 94 2d 3c 9a 57 f3 bd d0 c2 83 bd
       0.14904423 0.010594504 -0.11881943 -0.06433642
000050 41 04 1a 3d 6d f8 08 be 0e d1 b1 3d ac 5d 25 be
       0.037601713 -0.13376017 0.08682452 -0.16149014
000060 bf fd 2c be cf e9 30 be 0f fc 16 bd 66 7e f5 3d
       -0.16893671 -0.17276691 -0.036861476 0.11986999
000070 e0 5a 2c be dd 6f 15 3e 29 df 92 bd 98 f9 4f 3d
       -0.16831541 0.14593454 -0.07171471 0.05077514
000080 0f 76 14 3c 61 34 22 be 08 26 17 3e 3e fc c4 3d
       0.0090613505 -0.15840293 0.14760602 0.09618424
000090 d6 f4 34 3e 4d f4 b8 3d 30 ec ec bd 84 19 18 3e
       0.17671522 0.09030972 -0.11568487 0.14853483
0000a0 49 47 0b 3c 90 bb ad 3d a7 2b 12 be ff 2a 4c bd
       0.008500882 0.0848304 -0.14274465 -0.04984569
0000b0 ff b6 30 be 01 0f 8f bd 36 1c 18 3d 00 1b 0d be
       -0.17257307 -0.06985284 0.03713628 -0.13779831
0000c0 e4 e7 6a 3d 8d 64 c4 3d c5 8c c1 3c a1 2f f0 bd
       0.057350054 0.09589491 0.023626694 -0.117278345
0000d0 eb 52 0b be 57 7c 63 bd c2 f7 a0 3d b1 94 33 3e
       -0.1360585 -0.0555385 0.07859756 0.1753719
0000e0 96 22 ce 3d 46 e2 9a bc 12 fc 80 3d 85 9d 32 be
       0.100651905 -0.018906724 0.062980786 -0.17442901
0000f0 b9 95 19 be 61 fa aa 3d 28 04 cb bd 9a 20 ac 3d
       -0.14998521 0.08348537 -0.09912902 0.08404656
000100 b5 cf 00 be 14 46 b1 bd aa 20 16 be 75 f9 be 3d
       -0.12579234 -0.086559445 -0.14660898 0.09324924
000110 79 5e 8b bc 28 56 0c 3e 01 02 de 3d 90 48 c6 3d
       -0.017012822 0.13704741 0.10840226 0.09681809
000120 30 80 99 3b f4 c5 5b bd 80 88 21 bd fd a6 c8 3c
       0.0046844706 -0.05365558 -0.039436817 0.024493689
000130 86 83 b5 3d 45 b0 ff bd cc e6 16 3e 24 44 95 bc
       0.08862977 -0.124847926 0.1473648 -0.018220969
000140 56 b5 18 be 02 d6 c1 bd 28 25 1f 3e 33 92 26 3e
       -0.14912924 -0.09464647 0.15541518 0.16266708
000150 1e a7 26 be 1c 4c fd 3d a8 7c b7 3d 68 58 d8 3d
       -0.16274688 0.12368032 0.08959323 0.10563737
000160 d6 36 18 3e dc 2a c5 bd e7 bd 68 3d 3c 1c 92 3d
       0.14864668 -0.096273154 0.05682173 0.071342915
000170 37 dd 51 bd 01 69 76 3d 37 3b 4c bd 5c c9 dd 3d
       -0.051236358 0.060158733 -0.04986116 0.10829422
000180 88 cd 44 bd b3 03 89 bd 99 30 32 3d cb ba 7c 3d
       -0.048047572 -0.06690159 0.043503378 0.061701577
000190 03 ee b2 bd 22 a5 6f 3c b6 dc d3 3d fb 45 98 bc
       -0.087368034 0.014626773 0.10344832 -0.018588057
0001a0 05 75 60 3d e0 bb 32 bd 3f f1 80 3d 42 27 04 be
       0.0547991 -0.043636203 0.06296014 -0.129056
0001b0 e8 ef d6 bd 38 b8 b5 bd fb 61 27 3e 05 ef 46 bd
       -0.10494977 -0.088730276 0.1634597 -0.04856779
0001c0 6b 54 c2 ba 3f 74 b1 bd d8 bb 35 3e ae c5 2f 3e
       -0.0014826184 -0.0866475 0.17747438 0.17165253
0001d0 de 8b 09 be 12 b9 11 be 41 3c 0a be 9e d0 f2 ba
       -0.13432261 -0.14230755 -0.13499548 -0.0018525308
0001e0 6b 79 34 bd d1 04 ef bd b0 e6 83 bd 7f e5 0c 3d
       -0.044061106 -0.116708405 -0.064404845 0.034398552
0001f0 b8 35 bf bd d2 58 1c 3d 6b 23 2a bd fa 61 ad bd
       -0.09336418 0.038170643 -0.041537683 -0.08465953
000200 69 25 cf 3c 17 d2 13 3e 98 d0 f6 bd 79 35 ec 3b
       0.025286393 0.14435612 -0.12051505 0.007208523
000210 5f 8e 87 bd 87 9c 30 3e b9 c4 2c be 67 8f 2e be
       -0.06618952 0.1724721 -0.16871919 -0.17046891
000220 cb 65 33 3e 2f 1b e7 bd 1c eb 0e 3d 31 2d 85 bc
       0.175193 -0.11284482 0.034892187 -0.0162569
000230 c0 a0 1c bd 54 a0 1d bd 1b 1a e8 3d 14 1a f4 3b
       -0.03823924 -0.03848298 0.11333104 0.007449398
000240 5a 44 31 be fb c7 d7 bd 40 be 72 bd c5 22 b4 3d
       -0.1731123 -0.1053619 -0.059263468 0.08795694
000250 db 55 ec bd ee b5 2b 3e 85 5e 25 bd d9 1c 06 bd
       -0.11539813 0.1676862 -0.040373344 -0.032742355
000260 f4 dc 0e 3e 5b ea b3 3d 90 80 18 3e 96 77 d3 3d
       0.13951474 0.08784934 0.14892793 0.103255436
000270 66 bf 5f bd 2a 40 f2 bd bf e0 67 bc a4 d7 16 3e
       -0.05462589 -0.118286446 -0.014152705 0.14730698
000280 a8 1b 77 bd 14 d9 26 be f1 74 96 3d b4 3d 31 3e
       -0.06032911 -0.16293746 0.073465236 0.17308694
000290 7c 09 4a bd 48 dd 14 be e2 2b 23 be 2f 5c 31 3d
       -0.04932545 -0.14537537 -0.15934709 0.043300804
0002a0 7a ee 4a bc 05 c7 b4 bd 5c 71 16 3d 06 89 8b 3d
       -0.012385959 -0.088270225 0.0367292 0.068132445
0002b0 ef fd 10 3e 32 84 0b 3e f4 92 d0 bc cc 97 1e be
       0.14159368 0.13624647 -0.025460698 -0.15487593
0002c0 b8 8c 22 be 29 0a 2a 3e b3 16 a2 3d fd dc 9f 3d
       -0.15873992 0.16605438 0.07914486 0.07805822
0002d0 b8 a2 1d be 5b a6 28 3e e9 82 2c 3e 7a 75 24 3e
       -0.15394104 0.1646971 0.16846813 0.16060439
0002e0 6f ae 17 be f3 8e 86 bd 3e f3 f6 bd 62 71 2c 3e
       -0.14812635 -0.06570234 -0.120581135 0.16840127
0002f0 4e 83 99 bd 2a 3e a3 bd 72 b9 bf 3d d6 6d a5 bd
       -0.074957475 -0.07970841 0.09361543 -0.0807759
000300 2b 5c b4 bd 3a dd 86 bc 4a 63 93 bc be 08 0e be
       -0.08806642 -0.01646291 -0.01799168 -0.13870522
000310 d6 e2 15 3e 47 c0 a1 bd c0 be 7c 3d 75 6c 1c 3e
       0.14637312 -0.07898002 0.06170535 0.15275748
000320 bb 88 b4 3d 74 d6 c4 3c 86 0b 1b 3e 62 7a ba 3c
       0.08815142 0.02402804 0.15141115 0.022763435
000330 2d 8c a9 bd 61 38 2a 3e a7 47 27 3d 1e a4 31 be
       -0.082786895 0.1662307 0.040839817 -0.17347762
000340 15 3c 52 bd 2e a8 f8 bd 70 af 1d 3e 44 59 f7 bc
       -0.05132683 -0.12141453 0.15398955 -0.030193932
000350 12 07 26 be e7 73 46 bc 26 51 e1 3d 09 05 38 3d
       -0.16213635 -0.012112594 0.11001806 0.044926677
000360 58 dc 60 3d 11 9b 7c 3c 46 ed 84 3d e7 53 2c bd
       0.054897636 0.01541783 0.06490569 -0.042072203
000370 2a 11 92 bd 6b 39 2a be 7d 64 09 be 4e dc 9a 3d
       -0.0713218 -0.16623466 -0.1341724 0.07561551
000380 73 6a d8 bd 0b f4 d7 3c 05 37 6b 3d dd 73 5d 3c
       -0.105671786 0.026361486 0.057425518 0.0135163935
000390 8b c6 ec bd 40 23 2e 3e bd 92 d4 bd 59 dd 13 3e
       -0.115613066 0.17005634 -0.103795506 0.14439906
0003a0 be 06 11 be 48 45 32 bd cb e3 c2 3d ce df 91 bd
       -0.14162728 -0.043523103 0.09516104 -0.071227655
0003b0 85 16 19 3e b4 2f fb bd f2 09 19 be e0 33 a1 bd
       0.14949997 -0.12264958 -0.149452 -0.078712225
0003c0 62 e7 e1 3c 8f b1 27 3e af e2 ae bd f0 85 83 3d
       0.027576152 0.16376327 -0.0853933 0.06422031
0003d0 81 6f 31 bd f2 1e 21 bd ca 20 06 3e 73 43 0b be
       -0.04331923 -0.039336152 0.13098446 -0.13599949
0003e0 2e 9f 91 3c 94 41 2b 3e 78 2c cf bc be 86 0b 3e
       0.017776098 0.16724235 -0.025289759 0.13625619
0003f0 8f e3 5a bd 9d b0 10 3e 16 21 30 be a9 e7 d8 bc
       -0.053439673 0.14129873 -0.17200121 -0.026477652

encoder_embed_state.2.bias f4 [32]
000000 c6 b5 ae bd a3 00 fd bc 06 a2 3d bd f5 0c 20 be
       -0.08530764 -0.030884093 -0.046297096 -0.15629943
000010 ef be 03 bd 80 bf 61 3d 79 0e 95 bd d7 1c d6 bb
       -0.03216451 0.05511427 -0.07278151 -0.0065341997
000020 51 e8 f1 ba 80 2e 33 be e0 92 04 3e d0 32 11 3e
       -0.0018456077 -0.17498207 0.12946653 0.1417954
000030 50 e3 f8 3d 98 b0 69 bd 6f 3c bf 3d 05 a0 2a be
       0.121527314 -0.05705318 0.09337699 -0.16662605
000040 f5 07 2f bd a7 5c 17 bd a2 9c 7b bd af 1a 9a 3d
       -0.042732198 -0.036953595 -0.061428674 0.07524621
000050 f3 ea a2 bd 9b a7 9f bc ff 2c 55 bd 24 04 2b be
       -0.07954969 -0.0194891 -0.052044865 -0.16700798
000060 55 57 f7 bc ff 6e 1a be e9 0e d1 3d 52 8b c3 3d
       -0.03019301 -0.15081404 0.10207922 0.095480576
000070 fa 99 2a 3e 1b 0d 6f bd 7a e6 02 3c 9a ef 11 3d
       0.166603 -0.058362108 0.00798952 0.035628892

encoder_embed_action.0.weight f4 [32, 2]
000000 dc 70 34 3f 36 ab 25 3f 9d e1 bb be 24 49 1a bf
       0.7048471 0.6471437 -0.36695567 -0.60267854
000010 09 e5 22 bf e8 da ae be 62 74 18 3f 7d 34 74 3e
       -0.6363073 -0.34151387 0.59552586 0.23848148
000020 ae 66 2e 3f 69 6e 06 3f 80 f5 27 3c f6 61 e0 be
       0.68125427 0.5251222 0.010251403 -0.43824738
000030 6f 82 30 3f a4 76 11 3f 0c 41 9d 3e ab 41 c5 be
       0.68949026 0.56821656 0.3071369 -0.38526663
000040 ce db 0e 3f 25 c2 81 3d 7c e7 ef 3e 64 9d 97 3e
       0.55804145 0.06335858 0.46856296 0.29612267
000050 ef c1 c0 3e 8b 95 1e bf 57 3b c8 be e7 a0 d8 3e
       0.3764796 -0.61946934 -0.39107773 0.4231026
000060 06 e0 17 be 29 3a 1d bf f6 df 24 3f cf 27 6a bc
       -0.14831552 -0.6141687 0.6440424 -0.014291718
000070 08 48 12 3f 67 be 0d bf 78 45 78 3e 71 e1 88 be
       0.5714116 -0.55368656 0.2424525 -0.26734498
000080 e5 d6 97 be 64 0b 18 be c2 7e 85 be 10 e5 c6 3e
       -0.2965614 -0.14848095 -0.2607327 0.38846636
000090 d2 8c 08 be ff fe 08 3f c0 32 24 3e 51 cf e1 bd
       -0.13334969 0.53514093 0.16034985 -0.110258706
0000a0 05 a0 d1 be a3 7f 25 bf 5c 35 52 be aa 5f 27 bf
       -0.40942398 -0.64647883 -0.20528167 -0.65380347
0000b0 78 26 06 be 40 5a 3d 3c 30 a6 3a bd ea d6 b1 be
       -0.13100612 0.011557162 -0.045568645 -0.3473428
0000c0 34 ca fb 3e 81 61 cb 3e 85 6b 33 be 29 88 8e be
       0.49177706 0.39722827 -0.17521484 -0.27838257
0000d0 20 19 e3 3e 41 3c 1d 3f 23 7e 25 bf bb 6b 1b be
       0.44355106 0.61420065 -0.64645594 -0.15177815
0000e0 07 58 84 bd 69 97 83 be 3a cb 1a 3f e4 f4 d7 bd
       -0.064621024 -0.25701454 0.6046635 -0.10544756
0000f0 a4 bb 19 3f 75 4f 93 3b 48 15 9d bd 81 2d d3 be
       0.6005194 0.004495556 -0.07670075 -0.41245654

encoder_embed_action.0.bias f4 [32]
000000 ca c8 71 be d9 57 6a 3e 9c a1 9f 3e fc e8 c5 bc
       -0.23611751 0.22885074 0.31177986 -0.024158947
000010 2e bd 2c 3f 30 94 fa be 6c 4c 8a 3e a2 c8 22 3f
       0.67476165 -0.48941183 0.2701143 0.6358739
000020 c0 c2 f9 bd f8 74 0f 3f 84 97 2e 3c b5 cf 07 bf
       -0.12195349 0.56037855 0.010656241 -0.5305131
000030 de 21 c7 be 92 3e 86 3e ec 28 9c be 30 2c 2f 3e
       -0.38893026 0.26219612 -0.3049997 0.171067
000040 ca e9 31 3f 4f ee 74 3e 93 94 89 bd bc 02 36 3e
       0.6949736 0.23919033 -0.067177914 0.1777448
000050 23 19 d1 be a5 5b 18 bf 79 12 08 bf ce e4 17 bf
       -0.4083949 -0.5951484 -0.5315319 -0.59333503
000060 1f 92 13 3e e4 0f 0e 3e e9 5d 9a be dc 51 31 bf
       0.1441121 0.1387325 -0.30149773 -0.6926553
000070 28 9b c3 3e 81 e9 cc be d8 b7 ef bd 0c c8 17 bf
       0.38204312 -0.400219 -0.11704987 -0.5928962

encoder_embed_action.2.weight f4 [32, 32]
000000 8a 4b ce bd 77 13 99 3d f7 a2 27 be 2e 7f d0 bd
       -0.10073002 0.07474416 -0.1637076 -0.101805076
000010 5a bd 08 3e cb ab b9 bd 68 b6 98 bd b9 34 47 bd
       0.13353482 -0.0906597 -0.07456666 -0.048634265
000020 71 b5 98 3d 39 70 eb bd 04 02 89 3c 97 e7 95 3d
       0.07456482 -0.11496014 0.016724594 0.07319563
000030 b0 df 41 bc 54 a9 fd 3c 38 1d 0b be b4 b9 a5 3d
       -0.011833116 0.030964531 -0.13585365 0.08092061
000040 3e 5a 89 3d 03 74 ad bc d4 a7 14 be c6 da 92 3d
       0.067066655 -0.021173483 -0.14517146 0.07170634
000050 08 4b ee 3d 0f 31 f5 bc 7a a4 aa 3d 64 31 86 3d
       0.11635405 -0.02993062 0.08332153 0.06552389
000060 0a da 92 bd c8 ad 38 bc 6d 2b 33 3e f8 08 2c b9
       -0.07170494 -0.011271901 0.17497034 -0.0001640654
000070 83 16 0f be 54 9b 63 bc 49 10 b2 3d 20 5b 6c bd
       -0.13973431 -0.013892014 0.086945124 -0.05770409
000080 b3 8b bb bd 87 18 14 3e 85 79 bd 3d dd d6 ed bc
       -0.09157505 0.14462481 0.09251694 -0.029033119
000090 e0 95 03 3c 28 29 99 bc a7 33 2c 3d 53 19 ad 3b
       0.008031338 -0.018696383 0.042041447 0.00528256
0000a0 c7 08 d9 bd 94 0e 02 3d 9b 45 b8 3b ad e1 2a 3c
       -0.10597377 0.031752184 0.005623532 0.010429782
0000b0 d5 03 8c bd f4 9e 3d 3d 49 5b 11 be 32 59 54 3d
       -0.068366684 0.046294168 -0.14194979 0.051842876
0000c0 6d 23 c2 3d e3 90 a7 bc c6 a3 0d be 81 4b d7 ba
       0.09479413 -0.02045483 -0.13832006 -0.00164257
0000d0 3e 4f 44 ba c6 73 1d be bb 08 00 be 89 6e 27 3e
       -0.00074886146 -0.15376195 -0.1250333 0.1635076
0000e0 c5 64 08 3e 4e 98 c6 3d 79 da fc 3d 92 69 8d 3d
       0.1331969 0.096970186 0.12346358 0.069049016
0000f0 09 b4 c9 3d 81 d5 f1 3d d7 0d 25 bd a8 17 b8 bc
       0.09848792 0.11808301 -0.0402964 -0.022472218
000100 1a 0d 00 3e 88 74 75 3a 93 86 e9 bd dd 62 0d be
       0.12504998 0.0009363373 -0.11402621 -0.13807245
000110 ff 86 cc 3d 1b f1 15 3e cf 8e 0b 3e 45 31 f9 3c
       0.09986686 0.14642756 0.13628696 0.030419001
000120 39 dc f7 3d 07 2d 25 be 14 71 03 be b7 28 2d be
       0.12102551 -0.16130458 -0.12836105 -0.16910063
000130 fd dd 12 3e 96 5d 2a bb 07 c1 a8 bd 90 1a 79 3d
       0.14342494 -0.0025995723 -0.08239942 0.060816348
000140 99 79 85 bd b6 24 e6 bd 68 af 8d 3d 71 ac 08 3d
       -0.065173335 -0.11237471 0.06918222 0.033367578
000150 82 9b 00 be 9a 7c f0 bd ba bf a9 3d 95 a4 09 3e
       -0.12559322 -0.11742516 0.08288522 0.1344169
000160 6b 65 5b 3c 71 cc b3 bd 6e c5 ac 3d 46 64 f4 3c
       0.013390879 -0.087792285 0.08436094 0.02983297
000170 66 74 1d be 51 aa ec bd 46 63 1a 3d 2e 05 e0 3d
       -0.15376434 -0.11555923 0.03769233 0.10938488
000180 3d b7 6c bd 16 1b b1 3d cc 2a de bd 13 33 2c 3e
       -0.057791937 0.08647744 -0.108480066 0.16816358
000190 1d 02 02 3e fc 9f 07 3d 65 05 9f 3d 1f 18 80 3d
       0.12696119 0.033111557 0.07764701 0.06254601
0001a0 9c af d7 bd c8 f2 0d ba ca fc 3c 3d 8f 57 1f bd
       -0.10531542 -0.00054149004 0.046139516 -0.03890186
0001b0 89 9c 2e 3e c8 a9 8d bd d5 af 22 be 61 4f aa bd
       0.17051901 -0.06917149 -0.15887387 -0.083159216
0001c0 30 fa 26 be 51 31 16 3e 7f 79 a0 bd 3b ac fc bd
       -0.16306376 0.1466725 -0.078356735 -0.12337538
0001d0 3d 5a 94 bc 3f e6 f1 bd 90 1e bd bd 2a 92 b8 3d
       -0.018109435 -0.11811494 -0.09234345 0.090122536
0001e0 b5 ee 08 be 59 c8 ac 3d 79 fb 02 3e 5a b1 b6 ba
       -0.1337231 0.08436651 0.12791242 -0.0013938353
0001f0 6f ce a2 3d d6 d8 cc bd 4f 23 0c 3e 85 d9 2f 3e
       0.0794953 -0.10002296 0.13685344 0.17172821
000200 ce 29 30 3d 3f ef 23 3e 64 ce 34 be 0c d1 96 bc
       0.043008618 0.16009234 -0.17656857 -0.018410228
000210 0e f7 13 3d f2 56 1d be 3f 3a b2 3d b2 06 8c bd
       0.03612428 -0.15365198 0.08702516 -0.068372145
000220 24 e5 80 bd 7a 99 0e be 49 0e 96 3d df bc 04 be
       -0.06293705 -0.13925734 0.073269434 -0.12962674
000230 7b bf 1d bd 7f e0 a2 3d eb 64 09 3e f4 d3 27 3d
       -0.038512688 0.079529755 0.13417403 0.04097362
000240 97 1a 89 bd b3 85 9f bd 8a 28 c9 3d 8f 6f 0a 3d
       -0.06694525 -0.07789173 0.09822185 0.033797797
000250 e4 5b 17 3e 47 4b 86 3d 71 d3 11 3e f0 dd 11 be
       0.14781147 0.06557327 0.14240815 -0.14244819
000260 ed 8c 12 3e 5e 63 a8 bd 78 ba 3d bd a2 81 06 3b
       0.14311571 -0.08222078 -0.04632041 0.0020524045
000270 2d e2 0b bd 96 52 13 3d 69 54 22 3e 10 50 d8 bd
       -0.034151245 0.035967432 0.15852512 -0.10562146
000280 98 d3 63 3d 8e 82 12 be d8 30 db 3c 57 26 16 3e
       0.055621713 -0.14307615 0.026756689 0.14663063
000290 21 2a f6 3d a7 04 1b 3e 3e 07 c6 3d 29 01 80 bc
       0.12019754 0.15138493 0.0966935 -0.015625553
0002a0 6b 26 41 3d 4c 3b 95 bd 64 ad 1a 3e dc 3a b3 3d
       0.04715578 -0.072867006 0.15105206 0.08751461
0002b0 37 78 03 be 25 8b 1d 3e f4 c2 d4 ba 89 ba e0 bb
       -0.12838827 0.1538511 -0.0016232417 -0.006858174
0002c0 e5 43 4a bd fd 22 43 bd 0b 58 21 3c 21 b2 ae bd
       -0.049381156 -0.04764079 0.009847651 -0.08530069
0002d0 a7 68 29 be 53 87 bc bd e4 16 10 bd 1d b2 08 3e
       -0.16543828 -0.092054985 -0.03517808 0.13349195
0002e0 1b 31 06 3e d8 f6 da bd 56 a7 bd bb 31 08 55 bd
       0.1310467 -0.10691613 -0.0057877703 -0.052009765
0002f0 2c ba c3 bd 73 76 f6 bc 2a 24 77 bd 9a 5c ca 3d
       -0.09556994 -0.030085778 -0.060337223 0.098809436
000300 b3 98 b5 bd 99 fe e6 3c 74 41 ca bd 67 15 66 bd
       -0.08867016 0.028197573 -0.098757654 -0.056172755
000310 d7 86 0f 3e e5 bc b1 bd f5 c5 1d bc 03 e8 2d 3e
       0.14016281 -0.08678607 -0.009629716 0.16983037
000320 74 bb 73 3d b3 3a b6 bd 39 52 d7 bd 41 d2 79 bd
       0.05950494 -0.08897915 -0.105137296 -0.06099153
000330 26 a6 5e bd b6 ac 9f 3d cc e2 1c bd b2 b1 19 3e
       -0.05435767 0.07796614 -0.038302228 0.15009192
000340 93 98 c4 bd 65 53 5e bd ee db 85 3d 8c 98 11 3e
       -0.09599414 -0.05427875 0.06536089 0.14218348
000350 89 2f 2e 3e f5 f7 ef 3c 40 2a f4 3b c7 34 a2 bd
       0.1701032 0.02929304 0.0074513257 -0.07920223
000360 44 9b ce 3d b7 ce cf bd 6c 69 42 bd 6d 50 18 be
       0.10088208 -0.101468496 -0.04746382 -0.1487443
000370 6b ff 2c be 79 50 c8 3d 40 62 34 3c d5 4d 10 3e
       -0.16894309 0.09780974 0.011009753 0.1409219
000380 ca 04 0f 3e 65 07 c0 3d 0c ef 92 3d aa 01 40 bd
       0.1396667 0.093764104 0.07174501 -0.046876587
000390 b8 54 c2 3d be 17 ae 3d 58 90 76 3d 82 72 86 bb
       0.09488815 0.08500622 0.06019625 -0.004103006
0003a0 5f 1e d0 3c a8 df e9 3a f1 64 04 be 20 01 24 3d
       0.025405107 0.0017843144 -0.12929131 0.040040135
0003b0 d4 18 06 be 20 9d ad 3d 06 c1 d9 bd bc 6c 68 bd
       -0.13095409 0.08477235 -0.106325194 -0.056744322
0003c0 66 a6 a9 bd 90 e7 0f 3e 32 80 00 be e6 e8 ba 3d
       -0.08283691 0.14053178 -0.12548903 0.09126453
0003d0 4b 87 b3 3d de f1 fd 3d a8 6b 35 3d 6a 5d c5 3d
       0.087660395 0.12399648 0.044292122 0.09636958
0003e0 63 12 0e 3e ca b8 12 3d 70 1a 72 3d 6a 90 0e be
       0.13874201 0.03582076 0.059107244 -0.13922277
0003f0 8d 1f 3e bd 1d 3b 76 3c a6 43 a7 3c 3e d1 7f bd
       -0.046416808 0.015028742 0.020418 -0.06245541

encoder_embed_action.2.bias f4 [32]
000000 99 c8 10 be 42 81 9d bd f9 12 32 be 0f 31 f4 3d
       -0.14139022 -0.076906696 -0.1739005 0.1192342
000010 76 e9 31 3e 36 d8 d0 3d e5 73 6b 3d b2 39 2f 3d
       0.17374215 0.10197489 0.057483573 0.042779632
000020 ee 47 2f 3e 0f 98 b9 bd d4 fe 6e bd 65 82 21 be
       0.17117283 -0.09062206 -0.05834849 -0.15772398
000030 a3 35 87 bc c9 0e 57 3c 12 4e 4a 3d 9e e9 fd bd
       -0.016505068 0.013126084 0.04939086 -0.123980746
000040 35 63 9f bc d8 22 14 be b7 45 14 be 1f f3 c4 3c
       -0.019456485 -0.14466417 -0.14479719 0.02404171
000050 f8 b9 31 be c1 b5 3c 3d 13 bb 25 be 2d de f9 bd
       -0.17356098 0.04607177 -0.16184644 -0.1220058
000060 d1 56 1a bd 2a b8 2b be 51 2c 11 3e e4 57 15 3e
       -0.03768045 -0.16769472 0.14177062 0.14584309
000070 28 0e bb bd 72 95 13 3d 07 42 bb 3d 11 ff 61 3d
       -0.091335595 0.036031194 0.09143453 0.05517489

decoder_embed_state.0.weight f4 [32, 12]
000000 90 4b 1a bd 6d e5 8a be fa f7 57 3e d7 1f 81 be
       -0.03766972 -0.27128163 0.2109069 -0.25219604
000010 00 e3 56 bd 7a 80 8a 3c 45 a9 c0 bd de 48 da bd
       -0.052462578 0.016906966 -0.094072856 -0.106584296
000020 0d 75 7e be 06 7e 8a 3c 6b 5a 0a bd 84 57 80 3e
       -0.24849339 0.016905796 -0.033777636 0.2506677
000030 42 a3 c2 bd ec 79 64 3e e0 e6 5f 3c 2f cf 04 be
       -0.09503795 0.22312135 0.013665885 -0.1296966
000040 96 99 8c bd 80 2e 06 bd 80 f6 43 3b 40 ce 42 bd
       -0.06865232 -0.03275919 0.0029901564 -0.047559977
000050 48 74 af 3d 20 6f 73 3e 20 db 39 3d 80 24 d6 3d
       0.08567101 0.2377286 0.04537499 0.104561806
000060 62 84 35 3e 7e c6 7a 3d 93 3d 07 3e f2 08 1a 3e
       0.17726281 0.061224453 0.13207082 0.15042475
000070 13 d5 89 3e 38 61 86 be ff 41 c8 3d 76 ec 45 bc
       0.26920375 -0.26246047 0.09778213 -0.012080302
000080 2e 72 58 bd a7 fb e5 bd aa bd 32 3e 16 b8 87 3e
       -0.052843265 -0.112296395 0.17455164 0.26507634
000090 28 3d 71 be 64 b5 1f 3e 4c d5 4b 3e b0 a7 4e 3d
       -0.23558486 0.15596539 0.19905585 0.050452888
0000a0 80 db 5e 3b 74 79 63 3e 40 3a 0c 3c 1a 76 93 bd
       0.0034005344 0.222143 0.00855881 -0.072002605
0000b0 30 a1 ae bc 08 ae bd 3d 90 00 94 3d 00 2e 7f bc
       -0.021317095 0.092617095 0.0722667 -0.015574932
0000c0 c8 9f ba 3d 64 39 9f 3d c5 74 6f be a0 50 93 3d
       0.09112507 0.07774618 -0.23384388 0.071931124
0000d0 fa dc 34 3e f0 99 07 3d 90 da d7 bc 00 71 62 3e
       0.17662421 0.03310579 -0.026349336 0.22113419
0000e0 ac 21 81 be 95 ec 06 be 27 9c 05 be ac 6a 7f 3e
       -0.25221002 -0.13176186 -0.13047849 0.24943036
0000f0 eb 71 8e be e6 ba f2 3c 70 a9 8e be 15 25 0b bc
       -0.27821288 0.029630136 -0.27863646 -0.008492728
000100 b0 69 de 3d e9 4d 8c bd 00 fd 8f 3e 20 f6 a9 b8
       0.10860002 -0.06850798 0.2812271 -8.104392e-05
000110 f9 ae 15 be fe 7f 9a 3d 69 b5 18 3e 42 3e ce ba
       -0.14617528 0.07543944 0.14912952 -0.0015735107
000120 84 e1 7c 3e 94 17 3b be 50 41 fc 3d a8 da 27 3e
       0.24695402 -0.18270713 0.12317145 0.16392004
000130 d6 d2 12 3e 00 10 de b8 b0 c4 a8 3d 77 e7 67 be
       0.1433824 -0.00010588765 0.0824064 -0.2264689
000140 f6 f9 67 be 50 fd 92 bc 08 32 14 bd 38 7e 5b 3e
       -0.22653946 -0.017943054 -0.036180526 0.21434867
000150 1c 9f 55 3e bd 68 47 3e 8a 6b 08 be 65 15 69 be
       0.20861477 0.19473548 -0.13322273 -0.22762068
000160 59 26 8b be 1a 03 d8 3d 86 b1 85 be 43 08 93 be
       -0.27177694 0.105474666 -0.26112002 -0.2871724
000170 83 6a 16 be 60 9a 7a be 78 f0 e6 bd 71 12 39 be
       -0.14689068 -0.24472952 -0.112763345 -0.18073441
000180 9e a1 16 be d4 07 8d 3e fe ba 5a bd fd 3c 76 3e
       -0.1471009 0.27545035 -0.053400986 0.24046703
000190 1c 9b f2 3b 82 25 1c bd 0b 0c ab bd 48 54 54 be
       0.0074037444 -0.038121708 -0.083519064 -0.20735276
0001a0 5e 7a 6c be c4 b4 4d 3e d9 3b b8 bd 8f 9d 90 be
       -0.23093554 0.20088488 -0.0899579 -0.28245208
0001b0 58 a4 87 3e 40 77 af 3b 98 cd 45 be 2c 5c 68 be
       0.26492572 0.005354792 -0.19316709 -0.22691411
0001c0 47 3e 78 be c4 99 81 be b6 bf 85 3e 0c d1 4b 3e
       -0.24242507 -0.25312626 0.26122826 0.19903964
0001d0 60 6b c1 3c 64 ef 7b be 92 a1 9a bd 17 d8 8a be
       0.02361077 -0.24603039 -0.07550348 -0.27117988
0001e0 98 b1 c9 3d 63 06 9f bd 1e 90 80 bd 31 83 ba bd
       0.098483264 -0.0776489 -0.06277488 -0.09107054
0001f0 f0 91 09 3e ed 07 21 3e 45 ec 7e 3d bd f8 0f bd
       0.13434577 0.1572568 0.062237043 -0.035149325
000200 c6 e4 f1 bc 98 0e c6 bb e7 19 5b be 80 bb 90 3e
       -0.029528033 -0.00604422 -0.213966 0.2826805
000210 37 83 00 be c3 f5 2a 3e 15 bd 26 be 30 df 75 3a
       -0.12550054 0.16695313 -0.16283067 0.0009379266
000220 97 56 c8 3d 55 32 87 be b7 91 06 3e 78 3e 61 be
       0.09782141 -0.26405588 0.13141523 -0.21996486
000230 c5 e7 20 3d 57 91 6e bd 7f 78 2a 3e 1c 29 90 3e
       0.039283533 -0.058244076 0.16647528 0.28156364
000240 1f 49 87 3d 75 55 ed bb 61 6e 11 be a1 78 de 3d
       0.066057436 -0.0072428533 -0.14202262 0.10862852
000250 b0 41 0d be f3 28 f2 3d 82 32 fe bd e7 7c 47 3e
       -0.13794589 0.11824217 -0.12411977 0.1948124
000260 2c c3 63 3e 95 48 36 3e d1 f1 f7 3a 68 0f 08 3e
       0.22242421 0.17801125 0.0018916671 0.13287127
000270 79 2b 86 be 13 c0 70 3e 0e 8e 97 bd 82 93 d9 3d
       -0.26205042 0.2351077 -0.07400142 0.10623838
000280 f6 21 44 bd 43 91 c8 bd 00 cb 09 be 9c a5 3d 3e
       -0.04788395 -0.097933315 -0.13456345 0.18520206
000290 7e cc 1f be d5 6a 4c bd d9 17 14 3e d3 26 e6 3c
       -0.15605351 -0.04990657 0.14462222 0.028094685
0002a0 92 be 79 be 74 7b 93 be 02 bd 10 be d4 ce 87 3e
       -0.24389103 -0.28805125 -0.14134601 0.26524985
0002b0 9e 34 53 be 00 f1 23 3e d2 92 52 3e 71 01 f3 bd
       -0.2062554 0.16009903 0.2056382 -0.11865509
0002c0 7e 90 03 be 16 b1 55 be e1 87 3c 3d 93 33 21 bd
       -0.12848088 -0.20868334 0.04602802 -0.039355826
0002d0 20 ca 65 3c 9a 38 00 3e 4c 36 f8 3d 22 86 ba bd
       0.014025241 0.12521592 0.12119731 -0.09107615
0002e0 40 6b a2 3c 64 70 8c 3d 80 5a c9 3b e8 9c 6c 3d
       0.019826531 0.06857374 0.0061448216 0.057766825
0002f0 e4 7d ef bd 5c 4c 72 3e a0 8f f2 bc c0 48 17 bd
       -0.116939336 0.23661941 -0.029609501 -0.036934614
000300 71 2a 85 be 22 4c 57 be 7a 6f 23 3c c6 f5 3a bd
       -0.26008943 -0.21025136 0.009975309 -0.045644544
000310 0e 9c 13 be f8 c1 1b 3e 7c e7 db bc e2 f7 d1 3d
       -0.14414999 0.15210712 -0.026843779 0.10252358
000320 ea f3 77 3e 3b ed 08 be bb 76 10 be d8 81 69 bd
       0.2421414 -0.13371746 -0.14107792 -0.057008594
000330 80 41 c8 bc 88 d9 13 be 7a f0 8d bd e0 53 08 bc
       -0.024445295 -0.1443845 -0.06930633 -0.008320779
000340 9e 98 04 3e 9a bd 88 3e 98 e5 5a 3e 00 48 fa 3c
       0.12948844 0.26707155 0.21376646 0.03055191
000350 10 06 95 bc 70 70 97 3d 80 12 41 bc 18 2d 1b bd
       -0.018191367 0.073944926 -0.011784196 -0.0378848
000360 24 40 c9 3d e4 86 71 be 77 6a 7c be d0 8e 31 39
       0.09826687 -0.23586613 -0.24649988 0.00016933237
000370 d1 3d b5 bd 10 30 11 be 5d 1b 8a be 6d 09 47 3e
       -0.08849681 -0.1417849 -0.26974002 0.1943719
000380 e5 d4 4c bc 26 d8 1f be cd c6 ee bd 5f 7a 9d 3d
       -0.01250193 -0.15609798 -0.11659012 0.07689356
000390 c0 61 56 be 30 e2 97 3c 00 4d 69 bb f0 66 c9 3d
       -0.20935726 0.018540472 -0.0035598874 0.09834087
0003a0 78 87 ea 3d 20 24 41 be 10 47 ff 3d 24 37 5f 3e
       0.1145162 -0.18861437 0.12464726 0.21798378
0003b0 10 3f 98 3c ae 98 16 3e ce d2 df bd a8 dc 6a 3d
       0.018584758 0.1470668 -0.1092888 0.05733934
0003c0 a0 b3 aa 3d d4 8e 09 be 96 7c 35 3e 11 42 8c be
       0.08335042 -0.13433391 0.17723307 -0.27394155
0003d0 65 20 e0 bd c7 e7 2c be 4f 81 30 be e6 18 32 be
       -0.10943679 -0.16885291 -0.17236827 -0.1739231
0003e0 be c8 8b be 75 d3 46 3d 1d ce 65 bd 8f e0 77 be
       -0.27301592 0.048541505 -0.056104768 -0.24206756
0003f0 00 00 f9 b8 d4 f7 44 bd 74 e3 f3 3d bf 8a 67 be
       -0.00011873245 -0.04808791 0.119086176 -0.22611521

decoder_embed_state.0.bias f4 [32]
000000 2e 16 8e 3e 74 5d 8d bd f5 80 36 3e 00 7c 84 bc
       0.27751297 -0.069025904 0.1782263 -0.016172409
000010 d0 c0 e2 bd ab df 33 3e 61 b4 83 be 39 ae 78 3e
       -0.11071932 0.17565791 -0.25723556 0.2428521
000020 d8 1d 93 3e ee 69 a1 bd 6e 96 eb 3d 84 e6 93 3e
       0.28733706 -0.078815326 0.115033016 0.28886807
000030 1a 31 b0 3d 37 27 e5 3d a6 22 db 3d b0 e0 f1 bd
       0.086031154 0.1118912 0.10699968 -0.11810434
000040 4e 5c 92 3d 7d 8c 1d be a1 71 7d 3e 2a 57 fd bd
       0.07146512 -0.15385623 0.24750377 -0.12370141
000050 6a 33 89 3d 8e 42 ab bd 79 ce 12 3e 4e b0 bc 3b
       0.066992596 -0.08362304 0.14336576 0.005758322
000060 b3 83 21 3e c2 16 a0 bd a7 76 2d be d6 9d e0 3d
       0.15772896 -0.07816841 -0.16939794 0.10967605
000070 29 5c 26 be 0b b3 72 be 7e 77 e6 3d 00 c9 31 be
       -0.16246094 -0.23701112 0.1125326 -0.17361832

decoder_embed_state.2.weight f4 [32, 32]
000000 7c 08 86 bd 78 cc 34 bd 2d 0b 5e 3c c0 c6 7a bd
       -0.06544587 -0.04414031 0.013552469 -0.0612247
000010 64 4c 82 bd 7d e4 31 bd b6 b6 fd 3d 93 e7 5c 3d
       -0.063622266 -0.043430794 0.12388365 0.053931784
000020 4b 40 ac bd 86 40 fa bd fa fb a6 3b af 10 6c 3d
       -0.084107004 -0.12219338 0.005095956 0.0576331
000030 8c e5 30 bb 60 fb d5 3d fe 47 19 3e 74 38 54 3d
       -0.002699229 0.104483366 0.14968869 0.05181165
000040 3b e5 72 3d aa 0a d2 3d 49 f5 73 bd 1c 70 00 3d
       0.059300642 0.1025594 -0.059560094 0.031356916
000050 14 60 13 3e 08 5e ad bd 1d cd 71 3c 9a 7e 8b bd
       0.1439212 -0.08465201 0.0147583755 -0.06811257
000060 83 2a 0a be ea c2 bf 3d ef a4 10 3e c1 89 c1 bd
       -0.1349278 0.09363349 0.14125417 -0.094501026
000070 f8 af 87 3d a4 08 5e 3d 4c 69 8f 3d 0e 4a c7 3d
       0.0662536 0.05420746 0.07002506 0.09730922
000080 5c f9 27 3e cd 64 09 3e f5 6a 1f be d5 ed 8d bd
       0.16403717 0.13417359 -0.15568145 -0.069301285
000090 9e 47 c0 3d ba b9 d0 bd 70 2d 0e 3d 63 41 9d bd
       0.0938866 -0.101916745 0.0347113 -0.07678487
0000a0 9d b6 0b 3d 42 a7 b0 3d 7a 7d 5f 3d 94 79 02 3e
       0.0341097 0.08625652 0.054563023 0.12741691
0000b0 ab 74 b6 bc 09 7e c2 3d 7a fd 65 3d c2 31 64 bd
       -0.022272428 0.094966955 0.056149937 -0.055711515
0000c0 31 df 00 be 61 9c 25 3e 17 fb 5b bd 2b 59 08 3e
       -0.12585141 0.16172935 -0.053706255 0.13315265
0000d0 82 28 e2 3d 40 42 e9 bb 27 8c 16 be 71 c9 58 3c
       0.110428825 -0.0071184933 -0.14701901 0.013231621
0000e0 9a 10 b1 bd 74 6a 3c 3d f7 e7 8f bd 45 7f 0a 3e
       -0.086457446 0.04599996 -0.07026666 0.13525112
0000f0 7a 52 23 be c4 ec 42 bd 0c 2e dc 3c 50 26 8a 3c
       -0.15949431 -0.04758908 0.026877426 0.016863972
000100 a0 b0 13 3e 5a c8 64 bd 05 86 11 be 22 b3 ef 3d
       0.14422846 -0.055855133 -0.1421128 0.11704089
000110 38 54 4a 3d 45 71 ec 3d 4b 46 d6 bd 94 b0 d6 bd
       0.049396724 0.11545042 -0.10462626 -0.10482898
000120 dc 4a 94 bd 80 eb 4d 3c aa 43 71 3d 60 18 d2 bd
       -0.07240841 0.012568355 0.05890242 -0.102585554
000130 83 89 90 bc a6 3d 01 bd 08 25 24 3e d6 90 82 bd
       -0.017643696 -0.031552933 0.16029751 -0.063752815
000140 81 65 2e 3e 9a 0c de bd e9 3a 97 bd 06 27 08 be
       0.17030908 -0.10842247 -0.07384283 -0.13296136
000150 41 55 04 3e 5b f7 f8 bd d3 cf 93 3d 4a 15 87 bd
       0.12923147 -0.12156554 0.07217374 -0.065958574
000160 0a 5d 33 3e 98 45 cc 3c 42 33 1d be 6c 0a f1 3c
       0.1751596 0.024935529 -0.15351585 0.029423915
000170 d0 10 b0 3c 59 15 2f be 36 38 0d 3d b5 b5 2c 3e
       0.021492392 -0.17097987 0.034477435 0.1686619
000180 df 77 54 3d 00 71 76 ba c1 01 12 bd 9c 6a 40 3d
       0.05187213 -0.00094009936 -0.035646204 0.04697667
000190 39 4b a1 bd 1c 49 33 3e d1 7b 1c 3e 30 2e ab 3d
       -0.07875676 0.17508358 0.15281607 0.08358419
0001a0 bd cd 84 bd 0f f8 29 be 2b 5e ce bd 34 07 31 3e
       -0.06484554 -0.16598533 -0.10076555 0.17287904
0001b0 37 21 25 be c9 d0 2b be 25 5d 40 bc 8c 5d 66 3d
       -0.16125952 -0.16778864 -0.011740957 0.056241557
0001c0 a4 24 33 be f0 0f 28 be b2 85 00 3b 56 e1 72 bd
       -0.17494446 -0.1641233 0.0019610939 -0.05929693
0001d0 e7 45 fe 3d f8 e3 4f 3d d8 1a 1c be 23 23 22 be
       0.124156766 0.050754517 -0.15244615 -0.15833716
0001e0 c0 ad fa 3d e8 64 00 bd 5d 60 9e bd 9f 2a 68 3d
       0.122401714 -0.03134623 -0.077332236 0.05668127
0001f0 80 4e 0e bd e2 24 ad 3d ff b6 3b 3d d1 c0 9c bd
       -0.034742832 0.084543005 0.045828816 -0.07653964
000200 ed 1b 12 be 9e fc c3 3d 92 90 db bd f8 2b a0 bc
       -0.14268465 0.09569667 -0.10720934 -0.019552216
000210 f0 00 c6 3c 16 be d4 bd 1a 36 c5 3d cb 59 00 be
       0.024170369 -0.103878185 0.0962946 -0.12534253
000220 f5 bd 2d 3d a8 e1 9a 3c b6 c9 82 3d f3 ad 32 be
       0.042417485 0.01890643 0.063861296 -0.17449169
000230 34 ec 16 3c b4 72 ae 3d d2 d4 e9 bd 7c 2c 33 3d
       0.009211589 0.08517972 -0.114175454 0.043743595
000240 90 21 a1 b9 57 91 19 3e c3 6a 1d bd 80 4c 9e 3a
       -0.0003073332 0.14996849 -0.038431894 0.0012077242
000250 1b 83 9f bd 74 73 32 bd d5 30 4b 3d 4d 9b 2f be
       -0.07788678 -0.043567136 0.049607117 -0.17149086
000260 72 4c 08 3e d3 2b 02 3e 62 52 99 3d 92 7c 06 3e
       0.13310412 0.1271203 0.074864164 0.13133457
000270 42 65 61 bd 48 ed 24 3d 03 f7 02 3c 08 59 fa bd
       -0.055028208 0.04026535 0.0079934625 -0.122240126
000280 dd 22 89 bd 07 87 80 bd 41 ef 2e bd eb bb 20 be
       -0.06696103 -0.062757544 -0.04270864 -0.15696685
000290 3e 9e fe bd 29 54 81 bc 38 4c dc bc ae 4b 23 be
       -0.12432526 -0.015787201 -0.026891813 -0.15946838
0002a0 c7 ce 1e 3d ca 20 c5 3d 86 c7 17 3e dc 5e 19 3e
       0.038771417 0.09625395 0.14822206 0.14977592
0002b0 ae ee fa bd 37 f5 63 bd b8 b3 a9 bd ac cd 04 3d
       -0.12252556 -0.055653777 -0.08286232 0.032422706
0002c0 2b 20 46 3d ec 18 21 3d d8 9c d5 3d e6 00 bf 3d
       0.04837052 0.039330408 0.10430306 0.09326343
0002d0 6e 46 c0 bd 72 88 f8 3d 98 44 f6 3d 27 d5 c7 3c
       -0.093884334 0.121354 0.12024802 0.024393631
0002e0 99 77 1c be 2b 0c de bd 78 c8 49 3d ab 70 7e 3d
       -0.15279998 -0.108421646 0.049263448 0.062119167
0002f0 9f ca 28 3e b6 42 b8 3d 3c 44 85 3d a0 91 c5 bb
       0.16483544 0.08997099 0.06507155 -0.0060293227
000300 b4 d0 f4 3d ea c6 83 bd c4 5c 91 3d 35 6f ac bd
       0.119538695 -0.06434424 0.07097772 -0.084196486
000310 80 43 d8 ba 38 ea d3 3d 22 1f a6 3d 13 95 26 bd
       -0.0016499609 0.10347408 0.08111407 -0.040669512
000320 f5 3a 54 bb cd fa c8 bd d4 a5 a5 3d a4 8f f1 3d
       -0.0032383774 -0.098134615 0.0808827 0.117949754
000330 c9 25 75 3d 89 30 30 be 78 9b 02 be 72 5e f2 3d
       0.059850488 -0.17206015 -0.12754619 0.1183442
000340 8e 8b d7 bc a2 56 de 3d 18 68 04 3e 32 1a 54 bd
       -0.026311662 0.10856368 0.12930334 -0.051782794
000350 ca 76 d6 bd 48 4d 2a be 44 70 88 3d e1 a2 b7 3d
       -0.10471876 -0.16631043 0.06662038 0.089666136
000360 57 a0 01 bd f6 bc 2f be 61 31 e9 bd 4d 70 2c bc
       -0.031647053 -0.17161927 -0.113863714 -0.0105248215
000370 52 3c a5 3d 2c a0 72 bd c9 c3 eb bd d4 0a fc bd
       0.08068146 -0.059234783 -0.115119524 -0.12306753
000380 78 f0 20 3e 3a 1a 83 3d 23 ff 13 be cf 95 df bd
       0.15716732 0.06401487 -0.14452796 -0.109172456
000390 99 aa 19 be 71 54 c9 3c e8 02 93 bd eb 81 d1 ba
       -0.15006484 0.024576398 -0.07178289 -0.0015984153
0003a0 97 49 ed bc 2d 74 1e be 9c c9 22 be 83 6d 0d be
       -0.028965754 -0.15474005 -0.1589722 -0.13811307
0003b0 71 ac 99 bd e1 0b d9 3c 70 4e ac bd 00 7a ce bb
       -0.07503594 0.026494922 -0.08413398 -0.0063011646
0003c0 17 a8 b5 bc a7 8c 25 3e 2e 17 a7 bd e3 12 2a 3e
       -0.022174878 0.16166936 -0.08158718 0.16608767
0003d0 79 fd 0b be de 07 17 be 8d 5e 67 3d a3 c0 d4 bd
       -0.13670911 -0.14749095 0.056486655 -0.10388305
0003e0 80 a6 b7 3d 03 4c c8 bd dd 8b 0e 3e 6c 41 2e 3e
       0.08967304 -0.09780123 0.13920541 0.17017144
0003f0 a0 6b 39 3c ec bf 1a 3d 76 be 27 3e 5a 9f d6 3d
       0.011317164 0.037780687 0.16381249 0.10479613

decoder_embed_state.2.bias f4 [32]
000000 bd d4 00 bd 94 87 c3 3d f4 c1 c1 bd a1 55 33 be
       -0.031452883 0.09547344 -0.09460822 -0.17513134
000010 3f 03 92 bc 22 3a 02 be c7 43 0d be 31 f6 33 3d
       -0.017823813 -0.12717488 -0.13795386 0.04393596
000020 50 a9 19 3e b5 85 90 bd 34 74 13 bc 9e 1f 02 be
       0.15005994 -0.070567526 -0.008999873 -0.12707373
000030 f3 a5 02 3d 15 56 4a 3d c7 7d e6 bc 6a b3 08 3e
       0.031896543 0.0493985 -0.028136147 0.13349691
000040 53 aa 10 be 26 7d ca bc 44 01 cb bd 48 f8 1f 3e
       -0.14127474 -0.024717879 -0.09912351 0.15622056
000050 4e 4d 18 3e 50 09 31 3e 94 85 25 3e fe 56 8d 3d
       0.1487324 0.17288709 0.16164237 0.06901358
000060 15 a2 0b be 50 87 f3 bd 75 7b 29 3d 34 97 20 be
       -0.13636048 -0.11891043 0.041377503 -0.1568268
000070 18 27 e3 3d 7c 58 9b 3d 35 aa 28 3d 8c 05 1f be
       0.11091441 0.075852364 0.041177947 -0.1552946

decoder_embed_action.0.weight f4 [32, 2]
000000 a1 ae 03 3f 28 44 99 bd e6 6f 98 be 34 89 bd 3e
       0.5143834 -0.07483703 -0.29772872 0.3701874
000010 30 c1 74 3d a5 0c a1 be f4 78 29 3e aa 6d f1 be
       0.05975455 -0.3145496 0.16550046 -0.4715398
000020 64 fc 27 3f 40 eb 1e 3f 48 7a a7 3e 38 04 bf 3e
       0.6561949 0.62077713 0.3271048 0.37307906
000030 8c f1 33 bf b5 40 c9 be 60 30 2e bf 5a b2 bc be
       -0.70290446 -0.3930718 -0.68042564 -0.3685482
000040 14 14 16 bf 41 3e 05 3f 06 53 c3 3e 96 35 d5 3e
       -0.58624387 0.52048117 0.3814928 0.41642445
000050 bb b8 a0 be 79 f8 09 3f 10 42 d1 bd a8 99 3b be
       -0.31390938 0.53894764 -0.102176785 -0.18320334
000060 e0 6b c2 3e f0 43 f0 3e 1f d9 01 bf 6a 14 2c 3f
       0.37972927 0.46926832 -0.50721925 0.6721865
000070 10 1d 90 bd ac d3 3f 3e ea 80 34 bf ba 43 a3 3d
       -0.07036793 0.1873309 -0.7050921 0.07971902
000080 d8 b0 b3 be d7 2c e2 be 0b a6 96 be 98 b2 8c bb
       -0.3509586 -0.44174835 -0.29423556 -0.004293751
000090 87 40 4d be 8d 6e e8 be f0 dc 01 3f 6f 63 56 3e
       -0.20044146 -0.45396844 0.5072775 0.20936368
0000a0 f3 76 28 bf 50 e3 17 3e 98 e4 32 3e 3b a9 cc 3c
       -0.658065 0.14832807 0.17470014 0.02498304
0000b0 14 d3 2f 3e e0 7d 72 bd ac d2 9d 3e 18 5b fe be
       0.17170364 -0.059202075 0.30824792 -0.49678874
0000c0 de 5d 9a be 4b 9a 07 3f 32 4c e0 be a6 a0 b1 3e
       -0.3014974 0.5296981 -0.43808132 0.34692878
0000d0 88 bf 27 3f 32 c8 25 bf 5e 9c 9e be 2d 7a 1a 3f
       0.6552663 -0.647586 -0.30978674 0.60342675
0000e0 20 3a 33 bd 78 f7 0f 3e c8 19 ce 3d 22 32 95 3e
       -0.043756604 0.14059246 0.10063511 0.2913981
0000f0 ce a8 94 be 66 f4 b9 3d 38 20 f7 3e b3 6f 78 bd
       -0.29035038 0.090798184 0.48266768 -0.0606534

decoder_embed_action.0.bias f4 [32]
000000 ca 13 26 bf d7 41 79 3e c8 d8 38 be ec c1 18 be
       -0.64873946 0.24341522 -0.18051445 -0.14917725
000010 d0 4d bc 3e 9a d7 ff 3d 1c 04 db be f3 11 a7 be
       0.36778116 0.124922946 -0.42776573 -0.32630882
000020 28 22 dc bd f0 e4 32 be 78 49 19 be e9 74 f7 be
       -0.10748702 -0.17470145 -0.14969432 -0.48331383
000030 10 e1 02 3f ec 45 bc 3e f1 ea 0f 3e 2f ec 22 3e
       0.5112467 0.36772096 0.14054467 0.1591041
000040 1e 7c a7 3d 3e 9c 07 3f 75 de 24 3e fa a5 de 3d
       0.0817797 0.5297278 0.16100486 0.10871501
000050 42 04 c7 be ed 91 72 3e 1e 5a 29 bf 73 57 63 3e
       -0.38870436 0.23688479 -0.6615313 0.22201328
000060 d7 e7 1c bf 6c d6 95 be 6c a5 bf 3e 75 a2 d7 be
       -0.6129126 -0.29265153 0.37430894 -0.42116132
000070 86 e2 0f 3f a4 08 c8 be 42 b7 2b 3f 81 31 60 3e
       0.5620502 -0.39069092 0.67076504 0.21893884
