compile/results/parking-concrete-16d-sdiff1/model.pth (torch, 414491 bytes, 45 tensors)

encoder_embed_state.0.weight f4 [32, 12]
-0.680047 0.37248802 -0.55186623 -0.31387705 0.0047707045 0.07347857 -0.059088405 -0.28302038
0.08099479 0.15030184 -0.14533588 -0.23299307 -0.17950107 0.044471294 0.3875565 0.13102855
0.37789828 0.14919099 -0.14403465 -0.1822471 -0.13473614 -0.2682609 0.0064755175 0.22819424
0.07846353 -0.3056799 0.26754138 -0.035389207 -0.2629176 -0.13619047 0.27051055 -0.06448447
-0.07284427 0.112386286 -0.15291736 -0.37223992 0.087423965 0.1980669 -0.16439426 0.40949705
0.084755145 -0.21196552 0.043643635 0.045977388 -0.09650786 -0.17914937 0.26224315 0.262546
0.36154097 -0.19605953 0.326376 -0.32374877 0.34803635 -0.3494266 0.36259794 -0.29129717
-0.079917505 0.07712425 -0.16821373 -0.273935 0.029543696 0.4183977 0.0069324286 0.39745763
-0.3610775 0.18334831 -0.23354825 0.025875978 0.023448406 0.1860068 -0.24028766 0.3903651
0.28558198 0.08990767 0.19471443 0.05414165 0.42963514 -0.0048653353 0.09140858 -0.26636618
-0.20068088 -0.19247286 -0.10067748 0.20064063 -0.12407495 -0.0423088 -0.029985653 -0.06485102
0.2099164 0.2026877 0.11638674 0.19745255 -0.25499788 -0.022414027 0.021702645 -0.2810582
-0.29751965 -0.6709237 -0.057915345 -0.015085803 -0.20833795 0.18730654 0.12445341 -0.5345337
0.01796869 -0.1288465 0.105241336 -0.54066694 0.40660438 0.5874238 0.32771215 0.0146107385
0.0879363 0.3000108 0.0656355 -0.18216623 0.18822123 -0.1797165 0.1853408 0.2737789
0.00926164 -0.49490207 0.13908944 -0.7218101 -0.2639341 -0.30339497 0.17575626 -0.05852025
0.108291924 -0.26342914 -0.08428417 -0.44510823 -0.12816755 0.20622274 0.267297 0.32794723
-0.19005758 0.10818791 -0.37310997 0.10364063 0.25398245 -0.25548348 0.04132855 0.28241733
0.029881803 0.262183 -0.02189322 0.04174861 -0.09701982 0.30251324 -0.211659 0.17162126
0.07836803 0.18838479 0.22709487 0.2836739 0.04803884 0.14376509 0.39925984 0.29533148
-0.04639542 0.30106124 -0.24945483 0.1028837 -0.18727274 0.19335926 -0.08944633 -0.11755532
-0.25886115 0.09063214 -0.46257913 0.24541125 0.096753225 -0.1319379 0.20507272 0.14519897
0.1942562 0.13625596 0.060854934 0.17322409 -0.18071838 0.06154309 -0.37955302 -0.15781736
-0.24545772 -0.089500025 -0.043378223 -0.22620906 -0.1573781 0.16565713 -0.07033875 0.1405981
-0.33621806 0.011557955 -0.53037727 -0.35926494 -0.13987727 -0.092763975 -0.33069372 -0.15471415
-0.009911115 -0.019217702 -0.2171764 -0.088985175 0.5353814 -0.3117396 0.35103723 -0.09516379
-0.069539666 0.21985863 0.2499244 -0.22434121 0.24330828 0.27830508 -0.091279976 -0.30794147
-0.074583545 0.30006367 -0.19295739 0.37210584 -0.13642873 0.09605397 -0.189479 0.366671
0.14681277 0.13013022 0.185893 0.114024185 -0.1338517 0.023392553 -0.20235942 0.11253482
-0.106992096 0.44378507 -0.1111824 0.026226563 0.14814396 0.20156461 0.037440598 0.41152456
0.07472241 -0.0541534 0.15143025 0.098212436 0.49821487 0.05170833 0.0014132656 0.06396252
-0.081451245 -0.22371231 0.24529488 0.2930445 0.28316024 -0.23272476 0.23126012 -0.48885
00000000: 8f17 2ebf c0b6 be3e 1b47 0dbf 7eb4 a0be
00000010: 9253 9c3b ef7b 963d af06 72bd 0ce8 90be
00000020: 99e0 a53d bae8 193e eed2 14be bc95 6ebe
00000030: 21cf 37be 8827 363d ce6d c63e 592c 063e
00000040: e27b c13e 86c5 183e d27d 13be fc9e 3abe
00000050: 45f8 09be 7e59 89be 9430 d43b c0ab 693e
00000060: 7db1 a03d 1382 9cbe 2ffb 883e 46f4 10bd
00000070: 239d 86be 8475 0bbe 5c80 8a3e 6f10 84bd
00000080: 602f 95bd c82a e63d 5e96 1cbe 3b96 bebe
00000090: 560b b33d 0dd2 4a3e f856 28be 99a9 d13e
000000a0: 1b94 ad3d 7d0d 59be abc3 323d c952 3c3d
000000b0: eaa5 c5bd ef72 37be bc44 863e 6e6c 863e
000000c0: e61b b93e d4c3 48be c11a a73e 66c2 a5be
000000d0: d231 b23e 0be8 b2be 70a6 b93e e724 95be
000000e0: caab a3bd 52f3 9d3d 3840 2cbe 3541 8cbe
000000f0: 9f05 f23c 3938 d63e 6d29 e33b 917f cb3e
00000100: 26df b8be a9bf 3b3e 4627 6fbe dcf9 d33c
00000110: df16 c03c 9178 3e3e f80d 76be efdd c73e
00000120: cd37 923e 8321 b83d 3863 473e a3c3 5d3d
00000130: 23f9 db3e 646d 9fbb 6c34 bb3d 2661 88be
00000140: 4a7f 4dbe 9b17 45be ff2f cebd bd74 4d3e
00000150: 021b febd fe4b 2dbd 79a4 f5bc 9dd0 84bd
00000160: 53f4 563e 5d8d 4f3e 2c5c ee3d 0031 4a3e
00000170: 158f 82be 9f9d b7bc bfc9 b13c dce6 8fbe
00000180: 7f54 98be a8c1 2bbf a438 6dbd 722a 77bc
00000190: 8b56 55be 49cd 3f3e 6ee1 fe3d 33d7 08bf
000001a0: 1333 933c 56f0 03be c588 d73d 2669 0abf
000001b0: 732e d03e 6861 163f e3c9 a73e e161 6f3c
000001c0: f217 b43d 049b 993e e86b 863d c989 3abe
000001d0: 11bd 403e 9a07 38be fbc9 3d3e bf2c 8c3e
000001e0: 22be 173c ce63 fdbe 766d 0e3e 8cc8 38bf
000001f0: 5f22 87be 9656 9bbe 73f9 333e eeb2 6fbd
00000200: 28c8 dd3d 2fe0 86be 2e9d acbd 3ae5 e3be
00000210: 5b3e 03be 0e2c 533e 27db 883e b3e8 a73e
00000220: 749e 42be 9f91 dd3d 4508 bfbe 8a41 d43d
00000230: fd09 823e bbce 82be 2048 293d 0199 903e
00000240: afca f43c da3c 863e 6959 b3bc 9700 2b3d
00000250: 54b2 c6bd 04e3 9a3e 23bd 58be 7cbd 2f3e
00000260: 6b7f a03d f1e7 403e 8f8b 683e b53d 913e
00000270: 60c4 443d 2837 133e c96b cc3e b035 973e
00000280: 2009 3ebd b324 9a3e 1671 7fbe b0b4 d23d
00000290: 6dc4 3fbe f8ff 453e a32f b7bd d8c0 f0bd
000002a0: 7389 84be 589d b93d 2cd7 ecbe 164d 7b3e
000002b0: 8e26 c63d bb1a 07be 95fe 513e 0aaf 143e
000002c0: 19eb 463e af86 0b3e 0643 793d a861 313e
000002d0: 3d0e 39be 9b14 7c3d c654 c2be e09a 21be
000002e0: 4559 7bbe ca4b b7bd 5dad 31bd 59a3 67be
000002f0: ba27 21be 06a2 293e c30d 90bd f3f8 0f3e
00000300: c624 acbe 945d 3d3c cec6 07bf 93f1 b7be
00000310: fd3b 0fbe 0afb bdbd b050 a9be 636d 1ebe
00000320: 3b62 22bc 716e 9dbc 7d63 5ebe dc3d b6bd
00000330: c10e 093f 559c 9fbe 27bb b33e 3ce5 c2bd
00000340: d06a 8ebd 9f22 613e 2fec 7f3e b4b9 65be
00000350: ce25 793e 017e 8e3e fff0 babd 81aa 9dbe
00000360: 42bf 98bd f2a1 993e 9f96 45be a884 be3e
00000370: f9b3 0bbe f2b7 c43d c806 42be 4dbc bb3e
00000380: 1656 163e db40 053e bc5a 3e3e 8385 e93d
00000390: 6c10 09be bda1 bf3c 4f37 4fbe a878 e63d
000003a0: ac1e dbbd cc37 e33e 99b3 e3bd 17d9 d63c
000003b0: 0db3 173e f466 4e3e 505b 193d 59b3 d23e
000003c0: 1008 993d f5cf 5dbd 8810 1b3e 9a23 c93d
000003d0: 0516 ff3e 1dcc 533d 533d b93a c8fe 823d
000003e0: e9cf a6bd d714 65be 952e 7b3e ee09 963e
000003f0: 61fa 903e 664f 6ebe 74cf 6c3e 8c4a fabe

encoder_embed_state.0.bias f4 [32]
-0.18516524 0.01412028 0.06680416 0.2705293 0.11844286 -0.097755864 -0.00041473776 -0.15699619
0.27032813 0.15541022 0.045893647 -0.057648752 -0.08997869 -0.113822 0.26943967 -0.0059894826
-0.2259084 -0.09545617 -0.17747578 -0.056651894 -0.14816217 0.0033070487 0.029439868 0.03499267
0.02212349 0.19184017 -0.05733456 0.0030800097 -0.18325733 -0.20659071 0.28923687 0.114652954
00000000: f59b 3dbe bf58 673c 9fd0 883d d182 8a3e
00000010: 2c92 f23d 3a34 c8bd 2971 d9b9 9cc3 20be
00000020: 7368 8a3e db23 1f3e fafa 3b3d 1921 6cbd
00000030: bf46 b8bd 821b e9bd fff3 893e 6c43 c4bb
00000040: 8854 67be 867e c3bd 36bc 35be d10b 68bd
00000050: d3b7 17be 12bb 583b e12b f13c 7954 0f3d
00000060: 523c b53c c071 443e a5d7 6abd fdd9 493b
00000070: cfa7 3bbe 848c 53be db16 943e 2bcf ea3d

encoder_embed_state.2.weight f4 [32, 32]
-0.29239035 0.02030573 -0.008443361 0.15924862 0.15517862 -0.17465097 0.13330907 -0.07350686
0.1577939 0.13232194 0.31884992 0.012037308 -0.019914662 0.030755397 0.01977179 -0.13484661
-0.1328472 0.15726818 -0.23768426 -0.031781506 0.28110155 0.09880811 -0.13178787 -0.04222189
0.120155804 -0.22350302 0.082884096 -0.005202668 -0.24915367 0.24410322 -0.08927672 0.064016804
0.26318958 -0.06399274 -0.12455556 0.045944802 -0.07944765 0.048214037 0.044713218 -0.1836646
-0.03148036 0.22774476 -0.005657045 -0.11896762 0.2544158 0.066721275 0.13683417 0.03150341
0.30124414 -0.039197717 -0.05341212 0.24446099 -0.0024087143 -0.10134083 -0.09352991 -0.26143336
-0.008645738 0.25133422 -0.18024968 0.048728082 -0.027236044 -0.19810006 0.12005972 0.12501003
-0.020491576 0.09901475 0.43831438 -0.21017738 0.18324718 0.11212993 -0.12495602 -0.008078808
0.112285465 0.20587252 0.46881336 0.1408409 -0.009075275 0.19144608 -0.24729289 -0.15539773
-0.08423831 0.33458385 -0.09566685 -0.055815957 -0.033999596 0.16986592 0.21877046 0.29093564
0.0036389309 -0.25761643 -0.09471313 0.13922459 -0.04638771 0.091405176 -0.025942799 -0.0031504002
0.34899113 -0.022260133 -0.15261911 0.024529474 0.18897471 -0.08787828 0.16620927 0.11449402
-0.058793683 0.014984578 0.011580088 -0.0023179033 0.030474566 -0.14773838 0.16317356 0.3976389
0.29610193 -0.11785357 0.079332486 -0.035816904 -0.08044544 0.09948508 -0.08942208 -0.15152603
-0.10429559 0.19880106 -0.019975496 0.30343363 0.06076495 0.06660108 0.02182301 0.14277947
-0.38051862 0.108876534 -0.053691223 0.048834436 -0.19221757 0.28559554 0.31916055 0.12059272
-0.15682453 0.28096277 -0.6296259 0.01974651 -0.036687665 -0.023472786 -0.14320663 -0.34797013
-0.35870782 0.09819256 0.032703232 0.11817502 0.36206028 -0.14011209 0.08219112 -0.06676371
0.17918366 0.028852794 0.056749865 0.13308261 0.105251074 0.11612653 0.015608901 0.12422724
-0.13674997 0.29686087 0.43055767 -0.13841274 0.26106468 0.07125567 -0.009822684 -0.16815594
0.06263588 -0.2284788 0.2629617 0.23192947 -0.19147338 0.17149772 -0.038816493 -0.11467005
0.08035566 0.09615616 0.00682005 -0.23020542 0.11485884 0.1391843 0.19952084 0.2282025
-0.014566758 0.032838248 -0.19901323 0.2984349 -0.041359097 -0.16207236 -0.09049455 -0.029663553
0.08941119 -0.13793142 -0.4177091 0.044519555 -0.43129998 0.19592395 -0.2919255 0.31633562
-0.26105186 -0.12937742 -0.52042496 0.021617606 -0.105603054 -0.3969402 0.31070545 0.31819463
0.21805887 -0.017420968 0.26508105 -0.101742506 -0.20778702 -0.15542474 -0.10980406 -0.22285306
-0.25394416 -0.011601116 -0.49085683 -0.17688689 0.10225077 0.2218557 0.050246555 -0.26612228
-0.023626285 0.0056164786 -0.047720578 -0.12150763 0.09969336 -0.08769678 0.22937346 0.05675507
0.08878868 0.021773966 -0.16115448 0.09560064 0.0708766 -0.15025479 -0.0014957357 -0.14981416
-0.38177183 0.2484964 -0.26289278 0.060243264 0.26867887 -0.021583501 -0.10548943 0.13944583
-0.121802814 -0.17553434 -0.10663949 0.07712681 -0.0658849 0.29720953 0.07160309 -0.042597726
00000000: 30b4 95be 3458 a63c 0656 0abc 1212 233e
00000010: 25e7 1e3e b4d7 32be 2c82 083e c48a 96bd
00000020: b994 213e 677f 073e 4c40 a33e 2138 453c
00000030: 1324 a3bc bef2 fb3c 73f8 a13c 3b15 0abe
00000040: 1909 08be e90a 213e 8163 73be 532d 02bd
00000050: 8bec 8f3e e85b ca3d 66f3 06be dcf0 2cbd
00000060: 3f14 f63d fadd 64be 23bf a93d 247b aabb
00000070: 2422 7fbe 32f6 793e b7d6 b6bd 3e1b 833d
00000080: c9c0 863e a00e 83bd fc16 ffbd 9e30 3c3d
00000090: 73b5 a2bd 157c 453d 3525 373d 9312 3cbe
000000a0: 8df1 00bd ec35 693e bc5e b9bb 4ca5 f3bd
000000b0: ca42 823e 2aa5 883d 421e 0c3e b809 013d
000000c0: ac3c 9a3e c98d 20bd abc6 5abd fb53 7a3e
000000d0: 85db 1dbb c88b cfbd 9c8c bfbd 98da 85be
000000e0: daa6 0dbc e1ae 803e 5f93 38be 1997 473d
000000f0: 201e dfbc beda 4abe dfe1 f53d a102 003e
00000100: f3dd a7bc 3fc8 ca3d be6a e03e bd38 57be
00000110: 26a5 3b3e 60a4 e53d f1e8 ffbd fa5c 04bc
00000120: ecf5 e53d 3fd0 523e 4e08 f03e 9938 103e
00000130: 76b0 14bc 710a 443e 593a 7dbe 9520 1fbe
00000140: 2385 acbd 934e ab3e fbec c3bd 469f 64bd
00000150: 2943 0bbd 55f1 2d3e 5d05 603e 84f5 943e
00000160: 217b 6e3b 4de6 83be f5f8 c1bd e490 0e3e
00000170: 0a01 3ebd a332 bb3d fe85 d4bc f276 4ebb
00000180: f7ae b23e e25a b6bc 2f48 1cbe 09f2 c83c
00000190: 9682 413e 87f9 b3bd c332 2a3e d77b ea3d
000001a0: a5d1 70bd e081 753c 69ba 3d3c f7e7 17bb
000001b0: cca5 f93c bb48 17be f816 273e 5397 cb3e
000001c0: ac9a 973e 365d f1bd 1279 a23d bfb4 12bd
000001d0: 94c0 a4bd d5be cb3d ec22 b7bd a429 1bbe
000001e0: ed98 d5bd 8192 4b3e a7a3 a3bc a75b 9b3e
000001f0: abe4 783d 2666 883d 2bc6 b23c c834 123e
00000200: 56d3 c2be a9fa de3d 54eb 5bbd 9e06 483d
00000210: afd4 44be 9439 923e 0369 a33e 51f9 f63d
00000220: 9c96 20be 5ada 8f3e 2a2f 21bf 6fc3 a13c
00000230: ce45 16bd 004a c0bc c2a4 12be 2429 b2be
00000240: 8da8 b7be 2e19 c93d d3f3 053d bf05 f23d
00000250: f75f b93e 8b79 0fbe d153 a83d 69bb 88bd
00000260: ec7b 373e b25c ec3c 8c72 683d cf46 083e
00000270: e08d d73d bfd3 ed3d 7abc 7f3c da6a fe3d
00000280: 2f08 0cbe 26fe 973e 0e72 dc3e 12bc 0dbe
00000290: 45aa 853e 7eee 913d 53ef 20bc 1231 2cbe
000002a0: 3e47 803d 59f6 69be eaa2 863e eb7e 6d3e
000002b0: 9911 44be 199d 2f3e 0bfe 1ebd 22d8 eabd
000002c0: 8291 a43d 85ed c43d ba7a df3b f8ba 6bbe
000002d0: 1d3b eb3d 5486 0e3e 314f 4c3e ebad 693e
000002e0: 69a9 6ebc 6681 063d 20ca 4bbe 76cc 983e
000002f0: 2868 29bd 4cf6 25be 3555 b9bd fb00 f3bc
00000300: 371d b73d e53d 0dbe f8dd d5be 235a 363d
00000310: 5ad3 dcbe 4aa0 483e 4277 95be bef6 a13e
00000320: 97a8 85be 847b 04be 923a 05bf 6817 b13c
00000330: 6a46 d8bd bf3b cbbe c914 9f3e 68ea a23e
00000340: d34a 5f3e 6bb6 8ebc b4b8 873e 605e d0bd
00000350: 1fc6 54be aa27 1fbe f3e0 e0bd 9833 64be
00000360: f804 82be 9b12 3ebc 9651 fbbe d621 35be
00000370: da68 d13d 242e 633e 55cf 4d3d 2e41 88be
00000380: e98b c1bc 700a b83b a776 43bd fed8 f8bd
00000390: 082c cc3d 5f9a b3bd e0e0 6a3e 0178 683d
000003a0: d7d6 b53d 515f b23c ae05 25be 45ca c33d
000003b0: c027 913d 64dc 19be 900c c4ba e268 19be
000003c0: 9977 c3be d775 7e3e e299 86be a4c1 763d
000003d0: 4790 893e e2cf b0bc d80a d8bd e3ca 0e3e
000003e0: c173 f9bd 46bf 33be ce65 dabd a9f4 9d3d
000003f0: aaee 86bd d92b 983e a4a4 923d f47a 2ebd

encoder_embed_state.2.bias f4 [32]
-0.070772894 0.15297236 -0.23933557 -0.11915547 -0.14864992 -0.033969834 0.0041518 -0.090172775
-0.06534502 -0.1638783 -0.18554653 -0.0010397714 -0.014091293 -0.07536543 0.12223568 -0.10412765
-0.12733734 -0.21669203 -0.061726116 -0.23238543 -0.023926334 0.18825422 0.034387797 0.015125559
-0.0951716 0.07521823 0.23148791 0.1331766 0.022158168 -0.08798305 0.11058089 -0.22304624
00000000: 61f1 90bd c9a4 1c3e 6214 75be c807 f4bd
00000010: af37 18be f423 0bbd d30b 883b 81ac b8bd
00000020: 9cd3 85bd b7cf 27be e9ff 3dbe f048 88ba
00000030: 2bdf 66bc 3159 9abd b356 fa3d e140 d5bd
00000040: b864 02be 84e4 5dbe 86d4 7cbd 72f6 6dbe
00000050: 2901 c4bc b7c5 403e 38da 0c3d 31d1 773c
00000060: 54e9 c2bd 040c 9a3d 2b0b 6d3e 725f 083e
00000070: 0c85 b53c 7530 b4bd 3c78 e23d 3c66 64be

encoder_embed_action.0.weight f4 [32, 2]
0.101867296 -0.2370573 -0.09001735 0.15543427 0.062679924 0.17995836 0.18010533 0.15354623
0.08148672 -0.12505576 -0.6635762 -0.20695521 -0.6075188 0.5334821 0.62398696 0.055149682
-0.11297549 0.25460362 0.70068675 -0.58593917 0.58023936 -0.78251106 0.20033889 0.7533873
0.08464893 0.33817786 -0.015388152 0.022946768 0.29055896 -0.6566624 -0.7194231 -0.5972288
0.5737239 0.34494138 -0.83503133 -0.1679029 0.08788819 0.47196263 -0.12590578 0.0032987494
0.5039337 -0.0036307117 0.35548133 -0.5448651 -0.33522627 0.09771915 -0.19688292 -0.63885933
-0.73901975 0.027409054 -0.74631965 0.7406379 -0.6752211 -0.5314406 0.2116504 0.583857
-0.24401818 0.67857707 -0.66980237 0.6001598 0.39330882 0.734902 -0.1052094 0.52054733
00000000: cd9f d03d 26bf 72be 045b b8bd 292a 1f3e
00000010: 555e 803d 0147 383e 886d 383e 393b 1d3e
00000020: 82e2 a63d 9e0e 00be 21e0 29bf 11ec 53be
00000030: 5a86 1bbf 4892 083f 9cbd 1f3f a2e4 613d
00000040: b25f e7bd 685b 823e 3560 333f 1c00 16bf
00000050: 918a 143f a552 48bf a325 4d3e fddd 403f
00000060: 6b5c ad3d a625 ad3e 961e 7cbc dcfa bb3c
00000070: 25c4 943e 071b 28bf 1d2c 38bf fde3 18bf
00000080: 92df 123f 289c b03e 9dc4 55bf bdee 2bbe
00000090: b9fe b33d 16a5 f13e 72ed 00be d52f 583b
000000a0: cd01 013f 3cf1 6dbb a601 b63e 477c 0bbf
000000b0: c7a2 abbe fa20 c83d ad9b 49be 498c 23bf
000000c0: 6630 3dbf f488 e03c ce0e 3fbf 729a 3d3f
000000d0: 4adb 2cbf 7e0c 08bf e2ba 583e a777 153f
000000e0: e7df 79be 3ab7 2d3f 2b78 2bbf 13a4 193f
000000f0: c65f c93e 8a22 3c3f 0778 d7bd 9742 053f

encoder_embed_action.0.bias f4 [32]
0.35229042 0.21863021 -0.25953805 0.39051956 -0.22288483 0.6042723 0.46498713 0.15220329
0.6190711 -0.067882575 0.19496986 -0.4993056 0.14288373 -0.25237018 0.5323934 0.5870633
0.22442539 0.23279297 -0.57105136 -0.49976307 0.47603643 -0.32659057 0.55583763 0.5695599
0.653285 -0.6432724 0.33149356 0.26602674 -0.06257179 0.48309055 -0.40317276 -0.06150158
00000000: 695f b43e 99e0 5f3e 2ce2 84be 2ef2 c73e
00000010: ec3b 64be 97b1 1a3f cb12 ee3e 2edb 1b3e
00000020: 727b 1e3f 0506 8bbd 2ea6 473e fca4 ffbe
00000030: 1d50 123e aa36 81be ef4a 083f c849 163f
00000040: c5cf 653e 4861 6e3e 6c30 12bf f2e0 ffbe
00000050: 0cbb f33e e136 a7be 604b 0e3f adce 113f
00000060: b03d 273f 80ad 24bf 86b9 a93e a834 883e
00000070: a325 80bd a557 f73e a96c cebe 15e9 7bbd

encoder_embed_action.2.weight f4 [32, 32]
-0.042883404 0.020442313 -0.1495897 0.031091722 -0.14698364 0.1132588 0.051071513 -0.16109456
0.17889787 -0.053306565 -0.25133467 -0.18530667 0.22718586 -0.00019288505 -0.08212782 0.13551804
-0.053074658 0.016536616 -0.027361171 -0.13593715 0.11843817 -0.010588251 -0.07512603 -0.03407863
0.103892036 0.026150795 0.00970506 -0.039276186 0.10006818 0.16301145 0.089310855 0.0005921307
0.16336969 -0.14596145 -0.13484275 -0.12325998 0.07356285 -0.27697626 -0.22850864 -0.022078464
-0.045102816 0.097703315 0.22662245 -0.071075596 -0.21205373 -0.06902092 0.252353 -0.15788946
0.16674481 -0.11641712 -0.050190292 0.0014458897 -0.062123913 0.12402512 -0.04103261 0.083448924
-0.30269098 -0.17120373 -0.2186618 -0.07038414 -0.09904243 -0.21953043 0.010594879 -0.05386098
-0.026572686 -0.15958808 -0.11038544 0.055696983 0.04546094 -0.167449 -0.22571786 0.12784308
-0.03293886 -0.021778816 0.26237255 -0.23372637 -0.0935228 -0.1727456 0.186161 0.056567065
0.1220271 -0.058739 0.14843003 0.14785178 0.13576284 0.21317591 -0.19096063 -0.12500969
-0.2935337 -0.090648375 -0.06066337 -0.15470394 -0.19049677 -0.2577222 -0.1597419 -0.07879894
-0.10840503 0.07904367 -0.17744048 -0.106686726 -0.1686463 0.3239734 0.29816654 -0.23561372
-0.066709906 -0.22955368 -0.18620434 0.10956491 0.071235985 0.15972951 0.09122413 0.02915462
0.087137885 0.40573978 0.09281829 0.035497233 -0.038934767 -0.3207859 0.084949076 0.06279091
0.06741688 0.06279636 0.3839825 0.16005765 0.12499625 0.07081079 0.06079357 0.16187923
0.053611252 0.11834277 0.034260135 -0.042938907 0.06918751 -0.28961238 0.06443245 0.19578712
-0.10976461 -0.039650008 0.13111684 -0.13289298 0.07730765 -0.06802046 0.07129676 -0.3408984
-0.09028528 -0.24123016 0.015178128 0.13968843 0.14448811 0.05353109 -0.16346996 -0.03236787
-0.16236417 -0.30204654 -0.3382644 0.019721067 -0.12767549 -0.19283901 -0.056651793 0.012051565
0.0057365377 -0.09534997 -0.030618643 -0.07581512 0.16276471 0.28473997 0.1491964 -0.18146424
-0.04753765 -0.12585182 -0.28879318 0.020457312 0.1277536 -0.13392736 0.023076503 0.3461759
-0.05484377 0.1328679 -0.008543595 0.026330043 -0.19265957 -0.35128987 0.0358326 0.015607069
0.23454289 -0.007613551 0.43080795 0.13053928 0.0408491 0.2909983 0.12307905 0.15152565
0.06843124 -0.10415561 0.18235996 0.18611947 0.16756995 -0.38734096 -0.23012312 0.14680393
0.0686384 0.013190917 -0.029355465 -0.119087234 0.030699406 -0.13979113 0.12376729 -0.37266243
-0.038094778 -0.09115311 0.094082974 0.1306298 0.14000723 -0.13151205 -0.17937692 0.024089662
-0.22249113 -0.097270794 -0.32294333 0.0011832578 0.09541009 -0.28720936 0.0142329335 -0.106904864
-0.122250654 0.0061874427 0.062575035 -0.083899714 -0.07994739 -0.0410475 -0.19090387 0.17286648
0.09906567 -0.0123389615 -0.023025012 -0.15464973 0.048255183 0.0369595 0.20293689 -0.041786086
0.03394489 -0.098215766 -0.038351335 0.11875707 0.22603996 -0.015781734 -0.12827319 -0.07810614
-0.13009782 -0.2291037 -0.09475639 -0.06524294 0.06193113 -0.12581198 0.11042197 -0.17008007
00000000: 82a6 2fbd a376 a73c 0b2e 19be 11b4 fe3c
00000010: e182 16be 3bf4 e73d 5d30 513d f9f5 24be
00000020: 0131 373e fc57 5abd f0ae 80be 08c1 3dbe
00000030: 69a3 683e 3041 4ab9 a132 a8bd 3ec5 0a3e
00000040: d064 59bd cc77 873c 8924 e0bc 1c33 0bbe
00000050: b68f f23d 587a 2dbc addb 99bd 0996 0bbd
00000060: 59c5 d43d 313a d63c f901 1f3c 11e0 20bd
00000070: 8cf0 cc3d 79ec 263e 9ce8 b63d 3839 1b3a
00000080: 624a 273e eb76 15be 3814 0abe ba6f fcbd
00000090: 1fa8 963d d5cf 8dbe 2bfe 69be e5dd b4bc
000000a0: bbbd 38bd ad18 c83d b70f 683e 1590 91bd
000000b0: 9d24 59be d75a 8dbd 6a34 813e c6ad 21be
000000c0: 27bf 2a3e 196c eebd 5694 4dbd 0284 bd3a
000000d0: a575 7ebd e200 fe3d cf11 28bd 45e7 aa3d
000000e0: 50fa 9abe 0850 2fbe e1e8 5fbe 8f25 90bd
000000f0: c2d6 cabd 96cc 60be 2596 2d3c 559d 5cbd
00000100: f6ae d9bc 0f6b 23be c311 e2bd 8522 643d
00000110: 4035 3a3d c077 2bbe 9522 67be 4ce9 023e
00000120: e6ea 06bd 7d69 b2bc b255 863e f755 6fbe
00000130: e288 bfbd 39e4 30be fda0 3e3e deb2 673d
00000140: 58e9 f93d 4e98 70bd 0bfe 173e 7566 173e
00000150: 6a05 0b3e c94a 5a3e 2f8b 43be 8a02 00be
00000160: 0d4a 96be dba5 b9bd 277a 78bd b66a 1ebe
00000170: 9611 43be 2af4 83be 6193 23be 5761 a1bd
00000180: 7503 debd a6e1 a13d f5b2 35be 927e dabd
00000190: 9eb1 2cbe d7df a53e 49a9 983e b944 71be
000001a0: 349f 88bd 1f10 6bbe 5aac 3ebe 9163 e03d
000001b0: 2ce4 913d 2290 233e b7d3 ba3d abd5 ee3c
000001c0: 5975 b23d 20bd cf3e 8417 be3d 8c65 113d
000001d0: 107a 1fbd 0d3e a4be c8f9 ad3d 8598 803d
000001e0: dc11 8a3d 619b 803d 5b99 c43e 27e6 233e
000001f0: 09fe ff3d 3f05 913d ae02 793d abc3 253e
00000200: 7997 5b3d b25d f23d 5b54 0c3d b5e0 2fbd
00000210: 2eb2 8d3d 1348 94be 29f5 833d 6b7c 483e
00000220: 45cc e0bd 0c68 22bd 7e43 063e 1915 08be
00000230: 7953 9e3d 504e 8bbd 0904 923d 3c8a aebe
00000240: 7de7 b8bd 0a05 77be afad 783c 7c0a 0f3e
00000250: b1f4 133e 6b43 5b3d ab64 27be 2c94 04bd
00000260: cb42 26be d8a5 9abe fe30 adbe 138e a13c
00000270: 5dbd 02be 9777 45be b60b 68bd ed73 453c
00000280: 91f9 bb3b d846 c3bd f3d3 fabc f544 9bbd
00000290: cbab 263e 70c9 913e f1c6 183e c3d1 39be
000002a0: d7b6 42bd 4ddf 00be b3dc 93be 1896 a73c
000002b0: d7d1 023e 4124 09be ef0a bd3c f83d b13e
000002c0: dca3 60bd 860e 083e 6ffa 0bbc 1ab2 d73c
000002d0: 8d48 45be 44dc b3be 34c5 123d cbb4 7f3c
000002e0: 032c 703e 187b f9bb dc92 dc3e 17ac 053e
000002f0: 6351 273d bbfd 943e de10 fc3d 8a29 1b3e
00000300: ae25 8c3d 894f d5bd 92bc 3a3e 1a96 3e3e
00000310: 7597 2b3e 8e51 c6be 65a5 6bbe c553 163e
00000320: 4a92 8c3d b71e 583c df7a f0bc 02e4 f3bd
00000330: 527d fb3c 6825 0fbe b479 fd3d 9ccd bebe
00000340: 4509 1cbd 7bae babd 93ae c03d d1c3 053e
00000350: 0e5e 0f3e 18ab 06be 95ae 37be af57 c53c
00000360: b7d4 63be e935 c7bd d458 a5be 8b17 9b3a
00000370: 5e66 c33d 1b0d 93be 4031 693c f0f0 dabd
00000380: 8d5e fabd 08c0 ca3b 5727 803d 9dd3 abbd
00000390: 75bb a3bd 6c21 28bd 4e7c 43be e903 313e
000003a0: f1e2 ca3d 5b29 4abc f39e bcbc 805c 1ebe
000003b0: 3aa7 453d d862 173d b0ce 4f3e e327 2bbd
000003c0: cc09 0b3d 5925 c9bd 4a16 1dbd e836 f33d
000003d0: 0577 673e b248 81bc 0c5a 03be 1df6 9fbd
000003e0: 5d38 05be 299a 6abe a30f c2bd 179e 85bd
000003f0: 7fab 7d3d dbd4 00be ea24 e23d 7829 2ebe

encoder_embed_action.2.bias f4 [32]
0.19308862 -0.12285373 0.050628748 0.117911786 0.0076281526 -0.00361931 -0.14869285 0.12361587
-0.18398693 -0.002844342 0.09939473 0.058470547 -0.0086507965 0.038922567 0.12137314 -0.03285975
-0.062986225 0.067310624 -0.19786215 0.055182643 0.10246201 0.04056347 0.042670824 0.007228754
-0.034114715 -0.08370656 0.16269265 -0.061502583 -0.1852746 0.10365762 0.03680774 -0.039384425
00000000: 06b9 453e bd9a fbbd 1760 4f3d bc7b f13d
00000010: 95f5 f93b f231 6dbb f042 18be 512a fd3d
00000020: 1267 3cbe 2468 3abb 778f cb3d d07e 6f3d
00000030: 12bc 0dbc 456d 1f3d 7b92 f83d f297 06bd
00000040: ecfe 80bd 27da 893d 609c 4abe 3207 623d
00000050: 9ad7 d13d e225 263d 9ac7 2e3d 2fdf ec3b
00000060: dfbb 0bbd 586e abbd e798 263e 22ea 7bbd
00000070: a0b8 3dbe 724a d43d b6c3 163d 9051 21bd

decoder_embed_state.0.weight f4 [32, 12]
-0.21563196 -0.4992355 -0.24909724 0.35990158 0.16276124 0.20051657 0.20397636 -0.03601478
-0.07574938 0.19114092 0.5267447 -0.13961405 0.014672967 -0.035992753 -0.19168244 -0.05526589
0.09802133 0.106201164 0.32693017 -0.0087827295 -0.46140367 -0.21331926 -0.30733272 -0.1076499
0.2426704 -0.43343747 0.033030584 -0.013870463 -0.12055114 0.057198603 -0.08467248 -0.25170574
-0.10029982 0.18879887 -0.13423586 0.17245507 -0.10600382 0.37014896 0.07769501 -0.17780557
0.24113725 -0.20106415 -0.24245784 -0.07395925 -0.25995916 -0.038791034 -0.21549508 -0.3662154
-0.41678864 0.19182588 0.2974063 -0.17704703 -0.077296264 0.29886985 -0.3234986 -0.029382639
-0.053531382 -0.10261723 -0.56873554 0.24379268 -0.17802976 -0.3281732 0.187879 0.21466787
-0.47668126 0.1751592 -0.11204147 0.19972648 0.062458847 0.21967615 0.14673543 -0.2743801
0.095868036 0.24319324 0.12596874 -0.4002625 -0.44858694 0.017132765 -0.07312361 -0.20167895
-0.38570654 0.088148415 0.4279131 0.07362259 0.29016775 -1.2062829 0.20657316 0.3722076
-0.039848197 0.01666573 -0.05870185 -0.22380309 -0.12355397 0.17773713 0.17612076 -0.24714348
-0.21541682 -0.5611172 -0.3775343 -0.080305375 0.0339613 0.21603456 -0.26289353 -0.29107022
0.1540537 0.3668127 0.27568746 0.16807543 -0.06456706 0.14682172 -0.26273823 -0.114957765
0.22847196 0.2391473 -0.046357628 -0.21040583 -0.01916257 -0.3382357 -0.33897707 -0.023825547
-0.31994563 -0.35585463 0.32401448 0.42672646 -0.39592415 -0.12969413 0.017225226 0.13518007
0.15484792 0.27083418 0.40557855 0.016166145 -0.04386782 0.07016329 -0.18139204 0.009823354
0.15183395 -0.34606513 0.035933703 -0.16726083 0.2372774 0.17904674 0.2317505 0.0672136
0.06759153 -0.795391 -0.31503746 0.07262984 -0.05677456 -0.20991269 -0.05088099 -0.17651938
0.098526694 0.17205626 0.06673413 0.21703948 -0.290817 0.04321448 0.233964 -0.010428424
-0.20808506 0.28936696 -0.13913848 0.050309535 0.39970428 -0.41863808 0.031241398 0.0505916
-0.11789089 -0.42805496 -0.16778031 0.13256378 -0.19272982 0.03243344 -0.15718216 0.017577056
-0.059652545 0.092629164 0.34984216 -0.04861964 0.20523626 -0.57085925 -0.14967713 -0.05223909
-0.17756651 0.37878448 0.18925415 0.21493602 0.11464864 0.07076386 0.37982848 -0.03452344
-0.13965753 -0.17726834 -0.2400928 -0.28486636 -0.07345262 -0.38560513 0.21665327 -0.014211775
0.2862056 -0.10623984 0.26522407 -0.2120143 -0.009781433 0.08231966 -0.16280337 -0.09927219
0.25761607 -0.36166826 0.114096016 -0.19907233 -0.22612783 -0.26864666 0.10110041 0.16929378
0.3133644 0.080306165 0.391789 0.124508716 -0.300617 0.119885765 0.16569147 -0.29817283
-0.34716186 0.006968925 -0.4413953 0.1261449 0.13096553 0.07598329 0.073795825 0.10962147
0.22676307 0.086809024 -0.32620698 -0.11663264 -0.23030992 -0.048514247 -0.27822968 -0.29295206
-0.24580133 0.32380465 0.043104216 0.039806753 0.121782176 -0.0203277 -0.22839405 -0.26439118
-0.38304725 -0.1196075 -0.38181913 -0.2480319 -0.22641863 -0.006039945 -0.27415022 -0.33345675
00000000: a0ce 5cbe cc9b ffbe 5913 7fbe 0545 b83e
00000010: e2aa 263e 3754 4d3e 2edf 503e 3c84 13bd
00000020: 7e22 9bbd 72ba 433e bed8 063f fcf6 0ebe
00000030: e266 703c 236d 13bd 6748 44be 7c5e 62bd
00000040: 68bf c83d ff7f d93d 6463 a73e 70e5 0fbc
00000050: 1a3d ecbe 5d70 5abe b75a 9dbe 8d77 dcbd
00000060: 977e 783e 84eb ddbe 144b 073d f040 63bc
00000070: 84e3 f6bd 1549 6a3d c468 adbd 93df 80be
00000080: fe69 cdbd 7e54 413e 2075 09be 1098 303e
00000090: 8818 d9bd 2a84 bd3e 901e 9f3d aa12 36be
000000a0: afec 763e c3e3 4dbe de46 78be f277 97bd
000000b0: 5e19 85be 59e3 1ebd beaa 5cbe 9680 bbbe
000000c0: 5265 d5be 016e 443e a345 983e d14b 35be
000000d0: 814d 9ebd 7805 993e 9ca1 a5be dcb3 f0bc
000000e0: b943 5bbd fb28 d2bd a798 11bf caa4 793e
000000f0: 6f4d 36be 5106 a8be 5a63 403e e5d1 5b3e
00000100: 910f f4be ef5c 333e 0076 e5bd 1985 4c3e
00000110: d9d4 7f3d c9f2 603e d041 163e 8c7b 8cbe
00000120: 7656 c43d a607 793e f3fd 003e 35ef ccbe
00000130: 30ad e5be 035a 8c3c d5c1 95bd ed84 4ebe
00000140: 547b c5be 2887 b43d 6d17 db3e 71c7 963d
00000150: de90 943e 7a67 9abf ea87 533e ff91 be3e
00000160: dd37 23bd 9286 883c 5a71 70bd a32c 65be
00000170: dd09 fdbd b900 363e 0059 343e 2e13 7dbe
00000180: 3a96 5cbe 60a5 0fbf 2d4c c1be 2577 a4bd
00000190: 011b 0b3d 2a38 5d3e fb99 86be 2807 95be
000001a0: 41c0 1d3e e0ce bb3e e826 8d3e f71b 2c3e
000001b0: bc3b 84bd 6f58 163e a085 86be fa6e ebbd
000001c0: 8ef4 693e 08e3 743e 7fe1 3dbd a074 57be
000001d0: d2fa 9cbc 3b2d adbe 678e adbe cb2d c3bc
000001e0: eacf a3be 9432 b6be 3ae5 a53e e47b da3e
000001f0: 92b6 cabe 8ace 04be eb1b 8d3c a56c 0a3e
00000200: 7490 1e3e c7aa 8a3e fea7 cf3e dd6e 843c
00000210: beae 33bd c5b1 8f3d d6be 39be 22f2 203c
00000220: 5c7a 1b3e 732f b1be 382f 133d 6c46 2bbe
00000230: d9f8 723e 0758 373e 0150 6d3e 49a7 893d
00000240: 6e6d 8a3d bf9e 4bbf 974c a1be f4be 943d
00000250: 718c 68bd 5af3 56be 9668 50bd 7fc1 34be
00000260: 5dc8 c93d 842f 303e e7ab 883d 993f 5e3e
00000270: f7e5 94be ab01 313d 4294 6f3e fbdb 2abc
00000280: 4014 55be e827 943e 517a 0ebe 5f11 4e3d
00000290: 0aa6 cc3e bb57 d6be f6ed ff3c 2339 4f3d
000002a0: c770 f1bd 052a dbbe 9ace 2bbe cdbe 073e
000002b0: f75a 45be edd8 043d 5cf4 20be c2fd 8f3c
000002c0: 3a56 74bd 5cb4 bd3d 831e b33e 6325 47bd
000002d0: 7429 523e d523 12bf f644 19be a8f8 55bd
000002e0: ffd3 35be 0af0 c13e d7cb 413e 3018 5c3e
000002f0: e8cc ea3d a5ec 903d e178 c23e 7368 0dbd
00000300: 6202 0fbe d585 35be e3da 75be 01da 91be
00000310: 546e 96bd 096e c5be 5bda 5d3e 81d8 68bc
00000320: 8a89 923e 4694 d9bd 73cb 873e 471a 59be
00000330: 4e42 20bc 3697 a83d edb5 26be 384f cbbd
00000340: 41e6 833e 952c b9be 2cab e93d 9ed9 4bbe
00000350: 0e8e 67be 0e8c 89be bb0d cf3d 595b 2d3e
00000360: 4c71 a03e 8f77 a43d 9198 c83e 6dfe fe3d
00000370: 79ea 99be ab86 f53d 06ab 293e 1caa 98be
00000380: 33bf b1be 945b e43b 91fe e1be 212c 013e
00000390: d41b 063e 219d 9b3d 4422 973d 3981 e03d
000003a0: 9434 683e eec8 b13d 9a04 a7be 18dd eebd
000003b0: 5dd6 6bbe e0b6 46bd 1f74 8ebe d0fd 95be
000003c0: 58b3 7bbe b9c9 a53e 0c8e 303d 680c 233d
000003d0: ef68 f93d 4786 a6bc 21e0 69be 485e 87be
000003e0: c51e c4be c7f4 f4bd cc7d c3be 13fc 7dbe
000003f0: 49da 67be bbea c5bb 6b5d 8cbe d8ba aabe

decoder_embed_state.0.bias f4 [32]
-0.14173175 0.11456823 0.21576607 0.13915786 -0.30571902 0.091975555 0.14292835 -0.10995838
-0.27423757 0.04670227 0.043881465 0.087319046 -0.031994436 -0.27128264 -0.17086716 -0.15343928
-0.18316619 -0.06628285 -0.41047993 0.025374215 0.080425486 -0.06364629 -0.046219263 0.14272475
-0.2812579 -0.35598657 0.17499393 -0.1922965 -0.13380978 0.053531248 0.15995947 0.076053165
00000000: 2122 11be c0a2 ea3d c8f1 5c3e 667f 0e3e
00000010: 3487 9cbe ae5d bc3d cf5b 123e dc31 e1bd
00000020: de68 8cbe e14a 3f3d 0dbd 333d 54d4 b23d
00000030: 990c 03bd 8fe5 8abe cdf7 2ebe 301f 1dbe
00000040: eb8f 3bbe 4ebf 87bd 6d2a d2be 96dd cf3c
00000050: 1eb6 a43d fc58 82bd 6950 3dbd 7026 123e
00000060: 0901 90be df43 b6be 9c31 333e 60e9 44be
00000070: 6e05 09be 9543 5b3d 6acc 233e c3c1 9b3d

decoder_embed_state.2.weight f4 [32, 32]
0.2549263 0.01640758 -0.045029387 -0.07852966 0.16517036 0.1644558 0.08622682 0.273555
0.018176956 0.16414556 -0.10124204 0.13399263 0.011636936 0.19071649 0.13653496 0.23056999
0.11511372 0.13688168 -0.12543361 0.058939308 0.09327023 -0.007778065 -0.08576046 -0.15783565
-0.06133769 0.044344112 0.23092544 0.1809707 0.32016566 0.10421731 -0.09463122 -0.21935192
-0.15528888 -0.053033803 -0.03770148 0.104518995 0.1373776 -0.14463273 0.19854565 -0.22804119
-0.062906034 -0.15044034 0.1618744 -0.06835892 -0.16345409 0.1545598 0.0820013 -0.06473456
-0.03147934 0.09628074 0.2945917 -0.15164772 -0.043013956 -0.14153764 -0.030443517 -0.028409328
-0.09600548 -0.07128174 0.050611462 -0.14397588 -0.046869274 -0.038267713 -0.056784555 -0.013742892
0.2079231 0.027141633 0.111484006 -0.13327889 0.1181387 -0.16825886 -0.05398369 -0.20364173
0.0964577 0.11119277 -0.21844158 0.023874274 0.11226205 -0.089065194 -0.27447543 0.042028375
0.16396555 0.18316385 0.022651944 -0.16328658 -0.185347 0.32130063 0.15805888 0.06627947
-0.25193048 0.21187407 0.014460309 0.010987053 -0.048416127 -0.017584374 0.2429994 0.20720004
-0.14228213 0.072099075 -0.15462433 0.09413239 0.120540485 -0.048653472 -0.03889013 -0.26286796
-0.04245844 0.14160068 -0.19206059 0.04913405 -0.0768382 -0.12549342 -0.1594404 -0.24126999
0.12466192 0.10410539 0.083462715 0.26862812 0.23938188 -0.013095912 0.10446887 -0.056058906
-0.027168533 -0.032551482 0.18925248 -0.07676489 0.1971781 0.3186977 -0.12367082 0.23510939
0.09431915 -0.106885925 -0.088363774 -0.10097831 0.030642688 0.15694584 0.21126576 0.12645191
-0.24762683 -0.125531 0.33232453 0.012752122 -0.34238762 0.18635501 -0.042564422 -0.13887852
0.030156605 -0.25810286 -0.009435122 0.104000844 0.0021746408 0.022404786 -0.34158123 -0.237743
-0.13406412 -0.33921447 0.15960464 -0.030612675 0.16550437 0.004056275 -0.27367738 -0.09286217
-0.08832346 -0.13686746 -0.13629563 -0.078838974 0.33739126 -0.04584388 0.13310775 0.07294986
0.22874382 -0.008500241 -0.06894989 0.123432375 0.023543006 0.25429392 0.34491035 0.2768
0.11848132 -0.022178631 -0.027263941 0.013835846 -0.18978976 -0.083485134 0.08537331 0.02214248
0.33981904 -0.029792864 0.0765211 0.21142367 0.17811099 -0.11849747 0.14791843 0.08985283
-0.15372021 -0.029785816 -0.05332347 0.07668933 0.26080552 -0.01039671 0.10068093 -0.11420265
-0.25279176 0.1662505 -0.10468534 -0.044469837 -0.1611776 0.26450408 -0.31385866 -0.1308391
-0.23150995 -0.28189525 0.059244853 0.17809448 0.2460283 0.111112975 -0.029745195 0.032538846
-0.067317046 -0.0062913345 0.19193146 0.28871277 0.04186116 -0.14087993 -0.14047055 -0.12060985
-0.14237048 -0.049678776 -0.034118887 -0.047916837 0.087630056 -0.014332537 0.23930024 0.4946521
0.11505674 0.002365166 0.10239288 0.118339606 -0.006820672 -0.0925424 -0.035359062 -0.058032576
0.18222508 0.13896988 -0.025155481 -0.04996767 -0.19350095 0.018492965 -0.01914519 -0.17712928
0.08631573 -0.48230332 0.10061146 -0.1602873 -0.24110892 0.07862279 -0.16581737 -0.061068863
00000000: b385 823e 3069 863c bc70 38bd 29d4 a0bd
00000010: 6b22 293e 1a67 283e b097 b03d 670f 8c3e
00000020: d7e7 943c c615 283e fd57 cfbd 5d35 093e
00000030: d9a8 3e3c 2f4b 433e d2cf 0b3e 8a1a 6c3e
00000040: bec0 eb3d b62a 0c3e ab71 00be 586a 713d
00000050: 7604 bf3d 23df febb 2ea3 afbd ab9f 21be
00000060: 3b3d 7bbd 2ca2 353d b877 6c3e 6250 393e
00000070: c1ec a33e e36f d53d 03ce c1bd ca9d 60be
00000080: 0c04 1fbe f939 59bd de6c 1abd 0e0e d63d
00000090: b7ac 0c3e 9a1a 14be 8d4f 4b3e a183 69be
000000a0: e1d4 80bd 080d 1abe 67c2 253e c3ff 8bbd
000000b0: 8260 27be ed44 1e3e 4cf0 a73d 8e93 84bd
000000c0: 7bf0 00bd d62e c53d b9d4 963e 8a49 1bbe
000000d0: 672f 30bd 3eef 10be af64 f9bc aeba e8bc
000000e0: 859e c4bd 29fc 91bd f74d 4f3d 6a6e 13be
000000f0: fff9 3fbd 9bbe 1cbd ec96 68bd de29 61bc
00000100: cbe9 543e 2158 de3c ba51 e43d 437a 08be
00000110: b4f2 f13d 0d4c 2cbe 001e 5dbd 7587 50be
00000120: 9d8b c53d 09b9 e33d 26af 5fbe fb93 c33c
00000130: a5e9 e53d d067 b6bd 0b88 8cbe f225 2c3d
00000140: 96e6 273e 4e8f 3b3e 9290 b93c 9934 27be
00000150: 9bcb 3dbe 8481 a43e 30da 213e 88bd 873d
00000160: 08fd 80be 84f5 583e efea 6c3c 0a03 343c
00000170: fd4f 46bd 1b0d 90bc d6d4 783e 3f2c 543e
00000180: 68b2 11be aea8 933d d755 1ebe 7cc8 c03d
00000190: eedd f63d dd48 47bd 424b 1fbd a196 86be
000001a0: e7e8 2dbd c5ff 103e 88ab 44be c940 493d
000001b0: 595d 9dbd 5981 00be 5844 23be 7b0f 77be
000001c0: c04e ff3d 3535 d53d 80ee aa3d a089 893e
000001d0: 8620 753e 3c90 56bc c6f3 d53d 069e 65bd
000001e0: 8b90 debc b454 05bd 67cb 413e e936 9dbd
000001f0: 0ee9 493e 582c a33e 2047 fdbd 84c0 703e
00000200: 662a c13d 02e7 dabd 11f8 b4bd b7cd cebd
00000210: 6006 fb3c 69b6 203e 0d56 583e 9c7c 013e
00000220: e391 7dbe 338b 00be 7126 aa3e 47ee 503c
00000230: 6e4d afbe d9d3 3e3e 0858 2ebd 2c36 0ebe
00000240: fc0a f73c 0f26 84be c595 1abc 65fe d43d
00000250: 6b84 0e3b 3e8a b73c bce3 aebe e772 73be
00000260: 1b48 09be 85ad adbe 666f 233e 6fc7 fabc
00000270: fa79 293e 80ea 843b 711f 8cbe 852e bebd
00000280: eee2 b4bd fc26 0cbe 1591 0bbe 5476 a1bd
00000290: 8cbe ac3e cbc6 3bbd 664d 083e bc66 953d
000002a0: d23b 6a3e 9844 0bbc 9a35 8dbd 1dca fc3d
000002b0: 43dd c03c d032 823e 1798 b03e bbb8 8d3e
000002c0: 56a6 f23d f6af b5bc a158 dfbc bfaf 623c
000002d0: 3f58 42be 41fa aabd 34d8 ae3d 2564 b53c
000002e0: c3fc ad3e 2a10 f4bc 18b7 9c3d 727f 583e
000002f0: ba62 363e cdae f2bd ee77 173e c304 b83d
00000300: d568 1dbe 6201 f4bc b669 5abd 4c0f 9d3d
00000310: 4d88 853e f656 2abc ce31 ce3d 14e3 e9bd
00000320: ec6d 81be 923d 2a3e 4465 d6bd 0126 36bd
00000330: be0b 25be 146d 873e 15b2 a0be affa 05be
00000340: f210 6dbe 9354 90be bbaa 723d 665e 363e
00000350: d8ee 7b3e 338f e33d 32ac f3bc 7447 053d
00000360: 85dd 89bd 8a27 cebb ae89 443e 29d2 933e
00000370: 9c76 2b3d d442 10be 83d7 0fbe 4c02 f7bd
00000380: 91c9 11be f97b 4bbd 3fc0 0bbd 7244 44bd
00000390: 6377 b33d 04d3 6abc 1f0b 753e 0a43 fd3e
000003a0: dea2 eb3d e700 1b3b 5cb3 d13d 095c f23d
000003b0: f27f dfbb df86 bdbd aad4 10bd 91b3 6dbd
000003c0: 3699 3a3e 1f4e 0e3e de12 cebc e6aa 4cbd
000003d0: 1d25 46be 8f7e 973c 60d6 9cbc 6161 35be
000003e0: 4dc6 b03d 76f0 f6be 620d ce3d 5b22 24be
000003f0: 42e5 76be fc04 a13d 07cc 29be 5823 7abd

decoder_embed_state.2.bias f4 [32]
-0.17614476 0.15291174 0.04781199 0.19639973 0.018828494 -0.14862344 0.18898438 -0.06552859
0.1575061 0.21412729 -0.034691777 0.12921935 -0.05759099 -0.17010385 0.010884587 -0.15795206
-0.07344013 -0.13474983 -0.07039026 0.070605904 -0.16857758 0.050783873 -0.1876931 0.025200363
0.20882411 -0.16246654 0.18119209 -0.1428145 0.09611253 -0.13788374 0.08251295 -0.07041056
00000000: 4b5f 34be e594 1c3e 81d6 433d 031d 493e
00000010: 373e 9a3c be30 18be 1f85 413e da33 86bd
00000020: 4749 213e 2f44 5b3e f718 0ebd 1452 043e
00000030: 88e4 6bbd b42f 2ebe 4455 323c 2fbe 21be
00000040: c767 96bd dcfb 09be c528 90bd d499 903d
00000050: 9a9f 2cbe c002 503d 9f32 40be fe70 ce3c
00000060: fdd5 553e a15d 26be 6b8a 393e f73d 12be
00000070: a5d6 c43d 6531 0dbe 8dfc a83d 6933 90bd

decoder_embed_action.0.weight f4 [32, 2]
0.52931315 -0.2680202 0.082069576 -0.3017729 -0.5887269 -0.25724712 0.13492195 0.0106903445
0.15408844 0.44314447 -0.21482119 0.26672783 -0.44411746 -0.17937557 -0.3361479 0.7332448
-0.4020271 -0.64277977 0.21792185 0.28481114 0.45209056 -0.23904985 -0.6957123 -0.056428105
0.11020879 -0.21916369 0.5225016 0.7230908 -0.09619607 -0.27744773 -0.31934774 0.6980151
0.07513351 0.83513343 0.24979289 0.6052025 0.21320644 0.7056611 0.26806688 -0.8405854
0.5261362 -0.1196552 0.20453724 0.040846407 -0.49196994 0.38473964 -0.28138116 0.22344197
-0.05413118 0.6637483 0.16719742 0.5306496 0.37014267 0.73915803 0.55522704 -0.24543011
0.42451257 0.7438202 -0.09410118 -0.08807334 0.58075136 0.055534877 0.38927722 0.52332157
00000000: 1181 073f f239 89be 1814 a83d fa81 9abe
00000010: ceb6 16bf e5b5 83be fb28 0a3e 8e26 2f3c
00000020: 5cc9 1d3e d5e3 e23e 16fa 5bbe 8d90 883e
00000030: 5d63 e3be 3bae 37be 941b acbe eeb5 3b3f
00000040: 7fd6 cdbe 378d 24bf e826 5f3e c4d2 913e
00000050: 6a78 e73e 7cc9 74be 341a 32bf 2821 67bd
00000060: 25b5 e13d 726c 60be aac2 053f 7b1c 393f
00000070: 7202 c5bd a10d 8ebe 8c81 a3be 1eb1 323f
00000080: 99df 993d 4ecb 553f b5c9 7f3e 8dee 1a3f
00000090: ca52 5a3e 35a6 343f 1040 893e 9b30 57bf
000000a0: ddb0 063f c90d f5bd 3672 513e 904e 273d
000000b0: 7ce3 fbbe 98fc c43e 3111 90be f9cd 643e
000000c0: a8b8 5dbd 69eb 293f cd35 2b3e a7d8 073f
000000d0: 5783 bd3e 7639 3d3f 5c23 0e3f 0852 7bbe
000000e0: b659 d93e 006b 3e3f 1fb8 c0bd cc5f b4bd
000000f0: 1fac 143f 8a78 633d 584f c73e 67f8 053f

decoder_embed_action.0.bias f4 [32]
-0.19371782 0.42667046 0.58558285 0.4241356 0.008740808 -0.00016448201 0.440435 -0.16173564
-0.19208354 -0.12473237 -0.14326675 -0.3843732 0.14910726 -0.056273457 0.06139047 -0.15313703
-0.29582378 0.2935344 0.6052424 -0.21726142 -0.56268215 0.23753838 -0.3976155 0.41466844
0.15275256 -0.41181603 0.42262456 -0.6150554 -0.62199837 -0.4362858 -0.697172 -0.37150916
00000000: f75d 46be 8d74 da3e c2e8 153f 4d28 d93e
00000010: 9b35 0f3c ce78 2cb9 b280 e13e 079e 25be
00000020: 8cb1 44be af73 ffbd 85b4 12be 90cc c4be
00000030: 93af 183e ff7e 66bd 9374 7b3d f4cf 1cbe
00000040: 3776 97be 244a 963e 2af1 1a3f c779 5ebe
00000050: f00b 10bf 433d 733e 4294 cbbe 6c4f d43e
00000060: 2b6b 1c3e 8dd9 d2be 3f62 d83e 4574 1dbf
00000070: 493b 1fbf da60 dfbe dd79 32bf 7336 bebe

decoder_embed_action.2.weight f4 [32, 32]
0.15436722 0.09102432 0.082851864 -0.13670447 -0.05775722 0.100876465 0.1240206 -0.016003495
-0.06696744 0.22953138 -0.10205058 0.26438224 0.05548513 0.1649762 0.21314615 0.065019794
0.15564232 0.08363769 -0.105491206 0.0989849 0.018216338 0.007822426 -0.19644143 -0.1460914
0.27107123 0.19297476 0.12585996 0.33670047 0.109693244 0.17535384 0.049600814 0.22222202
-0.15425847 0.008540043 0.14417228 -0.17573026 0.10235161 -0.09038688 0.012119507 -0.29702422
-0.040616967 0.2135622 0.057034068 0.21933185 0.056698143 0.19149236 -0.06720686 -0.18082997
0.152011 -0.107164964 0.14789946 -0.15583493 0.16779067 0.034368977 -0.00012674459 -0.1407551
-0.14630595 0.12020676 -0.015122929 0.030811751 0.07534486 0.15158999 0.02666277 0.012994357
-0.059635293 -0.012750994 0.033932075 -0.053397436 0.099556044 -0.054619882 0.016103 -0.8852919
0.45999283 0.08169775 -0.11105241 0.19374534 0.075719364 0.17072536 0.10038133 -0.46843895
0.39570284 -0.12271548 -0.19489023 -0.007873526 -0.0059631853 -0.042103417 -0.22065194 0.03835431
-0.022267861 0.17565423 -0.097619034 0.15931742 0.45358834 -0.10682104 0.01196157 0.22607711
-0.08088271 0.055883978 0.11270058 -0.07887295 0.14708062 0.15461552 -0.036249273 -0.03966552
0.013795963 0.12447332 -0.17291103 -0.1357396 0.053961445 0.03575546 -0.016978057 -0.048211668
0.2472847 -0.006245658 0.100023 -0.019142104 -0.20042661 -0.14443235 -0.21615867 0.15693653
-0.002243395 0.034853037 0.13915862 -0.17982158 -0.03571403 -0.080484845 -0.074753106 0.1461182
0.052244052 0.05970614 0.022733293 0.015083969 0.036444698 -0.079438746 -0.08384093 -0.6475725
0.27005106 0.08957108 -0.040962826 -0.20056313 -0.1791279 -0.014335996 -0.024763912 -0.40600476
0.013193177 0.09609414 -0.12041489 0.03558051 -0.0532882 0.015599145 -0.3354996 -0.13821617
-0.14019611 0.0068524466 -0.018996324 -0.18977115 0.04735057 0.02264784 -0.16816969 0.21098498
-0.15172327 0.11328738 0.04775926 0.053155523 -0.13394047 0.0044968175 0.010266363 0.64819795
-0.35630023 0.12124418 -0.044066053 -0.19453935 -0.092303194 0.054636106 -0.11721541 0.3907123
0.1510074 0.11770385 0.09106382 -0.12014655 0.09736567 -0.004858081 -0.21224901 -0.07018735
0.17378595 -0.12676322 0.12953463 0.04984035 -0.08411188 0.111804314 -0.122059144 -0.08229328
0.06538965 -0.003714868 -0.025041958 0.087030604 0.15415107 -0.05447192 0.13921341 -0.31417102
0.05357083 0.16882913 0.1323349 -0.22337426 -0.081465945 0.016106064 -0.028020432 -0.2765742
-0.24848668 0.04138383 0.13130215 -0.074306086 -0.037737615 0.16085975 -0.25137383 -0.0920342
0.005953677 0.11372374 -0.021104183 0.1137856 -0.0076684724 0.119907886 -0.17677043 0.12636001
-0.084549956 -0.0128944125 0.06751058 0.0017792203 -0.08803531 -0.109943695 -0.18897009 -0.043368343
0.060062353 -0.008069877 0.08001414 0.050446134 0.10509579 -0.021065688 -0.1552123 -0.013025576
0.027636858 0.20149578 -0.14968234 -0.031393237 0.086715475 0.035614062 -0.04785662 0.08222563
-0.043357622 0.032292478 0.07042883 -0.03737716 -0.06465081 0.064859025 -0.061651208 -0.07112855
00000000: 7112 1e3e f56a ba3d 3dae a93d 42fc 0bbe
00000010: d692 6cbd 5298 ce3d 83fe fd3d c319 83bc
00000020: 3a26 89bd 460a 6b3e e5ff d0bd 1c5d 873e
00000030: 6044 633d 85ef 283e fc42 5a3e 1929 853d
00000040: b360 1f3e 3d4a ab3d c60b d8bd 98b8 ca3d
00000050: 6e3a 953c a229 003c f127 49be fc98 15be
00000060: d9c9 8a3e 2d9b 453e 6fe1 003e 0164 ac3e
00000070: daa6 e03d f58f 333e 392a 4b3d 2b8e 633e
00000080: eff5 1dbe 89eb 0b3c e6a1 133e a2f2 33be
00000090: b99d d13d c21c b9bd e690 463c 8f13 98be
000000a0: fa5d 26bd 0db0 5a3e 8e9c 693d 8798 603e
000000b0: 503c 683d 9316 443e c0a3 89bd 7e2b 39be
000000c0: c6a8 1b3e 4e79 dbbd f572 173e 3193 1fbe
000000d0: 51d1 2b3e 7cc6 0c3d bee6 04b9 1b22 10be
000000e0: 3ad1 15be f62e f63d 29c6 77bc ed68 fc3c
000000f0: 684e 9a3d 683a 1b3e e26b da3c 49e6 543c
00000100: 2344 74bd 8ce9 50bc 5cfc 0a3d 45b7 5abd
00000110: 0ae4 cb3d 19b9 5fbd 70ea 833c 7da2 62bf
00000120: 2e84 eb3e 2651 a73d 726f e3bd 2e65 463e
00000130: c112 9b3d a1d2 2e3e ba94 cd3d 3bd7 efbe
00000140: 9099 ca3e 4152 fbbd 4e91 47be f6ff 00bc
00000150: d366 c3bb a274 2cbd 95f2 61be 6919 1d3d
00000160: 176b b6bc b4de 333e 7dec c7bd 1b24 233e
00000170: bb3c e83e fdc4 dabd 76fa 433c c280 673e
00000180: d6a5 a5bd 99e6 643d 90cf e63d 2488 a1bd
00000190: 4d9c 163e 8853 1e3e 1e7a 14bd 5078 22bd
000001a0: 7608 623c deeb fe3d 970f 31be 52ff 0abe
000001b0: ad06 5d3d 5174 123d 9115 8bbc 9979 45bd
000001c0: 3338 7d3e 60a8 ccbb dcd8 cc3d e7cf 9cbc
000001d0: a23c 4dbe 13e6 13be b358 5dbe f8b3 203e
000001e0: ec05 13bb 0fc2 0e3d 997f 0e3e 2623 38be
000001f0: e048 12bd 3dd5 a4bd 2818 99bd 02a0 153e
00000200: dcfd 553d 6d8e 743d 2c3b ba3c c022 773c
00000210: 0947 153d c8b0 a2bd cbb4 abbd 50c7 25bf
00000220: 2244 8a3e 0b71 b73d a3c8 27bd 6c60 4dbe
00000230: 4e6d 37be 86e1 6abc b0dd cabc dbdf cfbe
00000240: 3228 583c 01cd c43d 159c f6bd debc 113d
00000250: ba44 5abd 8e93 7f3c 9bc6 abbe 8a88 0dbe
00000260: 928f 0fbe 7d8a e03b 2e9e 9bbc 5e53 42be
00000270: acf2 413d f787 b93c ad34 2cbe 720c 583e
00000280: 585d 1bbe 3703 e83d 379f 433d 9bb9 593d
00000290: b127 09be 0a5a 933b 3f34 283c 4df0 253f
000002a0: fc6c b6be de4e f83d 9b7e 34bd 5335 47be
000002b0: 7509 bdbd 1cca 5f3d a20e f0bd 710b c83e
000002c0: afa1 1a3e b70e f13d ab7f ba3d 650f f6bd
000002d0: a767 c73d 8a30 9fbb ce57 59be 63be 8fbd
000002e0: f2f4 313e 38ce 01be baa4 043e 6525 4c3d
000002f0: d942 acbd a9f9 e43d 25fa f9bd 6189 a8bd
00000300: 02eb 853d 2575 73bb cb24 cdbc 1a3d b23d
00000310: c7d9 1d3e f31d 5fbd f68d 0e3e 06db a0be
00000320: 166d 5b3d 8be1 2c3e cd82 073e 39bc 64be
00000330: 9ed7 a6bd ddf0 833c 1b8b e5bc 229b 8dbe
00000340: 4b73 7ebe 1782 293d 1274 063e ca2d 98bd
00000350: c292 1abd 6bb8 243e 12b4 80be 6d7c bcbd
00000360: 1017 c33b fee7 e83d aee2 acbc 6d08 e93d
00000370: cf47 fbbb 4492 f53d 4f03 35be 8564 013e
00000380: 8728 adbd 1643 53bc fd42 8a3d ba34 e93a
00000390: db4b b4bd 292a e1bd 6081 41be 01a3 31bd
000003a0: f103 763d 8437 04bc 74de a33d 9ba0 4e3d
000003b0: 763c d73d f391 acbc f9ef 1ebe 3a69 55bc
000003c0: b166 e23c e954 4e3e 5446 19be 3296 00bd
000003d0: e297 b13d 0de0 113d 4e05 44bd e965 a83d
000003e0: c397 31bd 1e45 043d fe3c 903d cb18 19bd
000003f0: a567 84bd cfd4 843d fa85 7cbd d8ab 91bd

decoder_embed_action.2.bias f4 [32]
-0.16859397 0.0616668 0.1433694 0.14460419 0.05921187 0.09036434 0.06844014 -0.011498696
-0.13572857 0.0126638375 0.118414305 -0.028167907 -0.17939033 -0.11870825 -0.11364382 0.13762206
-0.030438853 0.11171305 -0.019723967 -0.14319469 -0.13922726 0.04066559 0.022864008 0.0064293602
-0.0065511176 -0.047357727 0.027845796 0.17258237 -0.11444916 0.05864675 0.11387445 0.09471615
00000000: e6a3 2cbe 5496 7c3d 6ecf 123e 1f13 143e
00000010: 2588 723d f010 b93d 582a 8c3d 0765 3cbc
00000020: 6efc 0abe fc7b 4f3c 3383 f23d 62c0 e6bc
00000030: 19b2 37be 501d f3bd 17be e8bd ccec 0c3e
00000040: e75a f9bc d0c9 e43d 2894 a1bc a1a1 12be
00000050: 9791 0ebe f690 263d 4d4d bb3c 62ad d23b
00000060: c2aa d6bb 2dfa 41bd de1c e43c 6fb9 303e
00000070: 5264 eabd 9337 703d 0237 e93d 8afa c13d
