compile/results/drawing-concrete-24d-action0/model.pth (torch, 408447 bytes, 33 tensors)

encoder_embed_action.0.weight f4 [64, 2]
000000 e9 a9 cf 3d 3f cb b5 3e 22 fc 4f bf 78 f1 0e bf
       0.1013983 0.35506627 -0.812441 -0.558372
000010 3f 48 0b be 4f f1 88 3d 47 7e 0a 3e 5a 82 05 3f
       -0.13601778 0.06686651 0.13524733 0.52152026
000020 de 83 80 bd 97 99 3f 3e 5a 8a ff bd 9e 66 65 be
       -0.06275152 0.18710934 -0.1247756 -0.22402427
000030 22 e6 07 bf b0 2b d5 be 72 86 0a bf 32 0f b2 3d
       -0.5308553 -0.41634893 -0.541114 0.086943045
000040 bc d5 d0 3e 4f d3 b0 3e b8 86 a9 be cb c3 c8 be
       0.40788066 0.34536216 -0.33110595 -0.39211878
000050 60 5e 53 3e 3b 1a 0d 3f 3b 39 ad be 83 e0 db 3e
       0.2064147 0.5511815 -0.33832726 0.42944726
000060 af c2 54 be 41 e6 0b 3d 38 55 4c 3f be 50 3d bf
       -0.20777391 0.034155134 0.79817533 -0.7395133
000070 87 62 3c be a9 73 95 be 38 3b 91 be 92 d7 1a 3f
       -0.1839696 -0.29189804 -0.28365493 0.60485184
000080 85 aa ea be 86 a8 a6 be 45 e2 ca be 3b 62 43 bf
       -0.4583322 -0.32550448 -0.39625755 -0.7632176
000090 70 92 28 bf 16 14 f4 3e 2d 28 03 3f b8 d4 94 3e
       -0.65848446 0.47671574 0.5123318 0.29068542
0000a0 28 9b 80 3d c5 8b aa be 4e 98 12 bd 05 98 55 bf
       0.06279594 -0.3330976 -0.03578978 -0.8343509
0000b0 68 cc 02 bf 4c a4 ba be b3 3f 06 3f 55 57 f8 3e
       -0.5109315 -0.36453474 0.5244095 0.4850413
0000c0 cf 90 06 bf 29 4b 96 3d 81 b3 13 3f ac 7e eb 3e
       -0.5256471 0.073385544 0.57695776 0.4599508
0000d0 ff 15 df 3e ba 3c bd 3c 1a 52 12 3f 35 fe f5 be
       0.4357147 0.023100246 0.5715653 -0.48045507
0000e0 a8 27 a4 3e 23 ee 15 bf 2e 88 3f bf 7a a0 ec be
       0.32061505 -0.5856649 -0.7481717 -0.46216184
0000f0 ab 9c 0f 3f 43 13 d8 3e 8a 8d 9c be da 2c 35 3e
       0.5609843 0.42202196 -0.30576736 0.17692891
000100 77 22 bf 3e ac f1 ba bc db 71 30 bd 31 13 a7 3d
       0.37330982 -0.022820316 -0.04307733 0.08157957
000110 1e a1 cf 3e 4e 70 3e 3f 6d 7f 0b bf 1c ad 84 be
       0.4055261 0.74390113 -0.5449131 -0.25913322
000120 9c d5 01 3f 70 14 12 3f de 16 5f 3f ce 8d 33 3f
       0.5071657 0.57062435 0.8714427 0.7013825
000130 22 da 13 3d a2 d6 2f bf d8 d0 78 3e 8e 76 0c bf
       0.0360967 -0.6868688 0.24298418 -0.548684
000140 20 bd 49 bf 00 b6 40 3f 03 25 29 3f 3c b9 53 bf
       -0.78804207 0.7527771 0.660721 -0.8270452
000150 4f 40 85 3e d2 f9 54 be ea 82 a5 bd 93 0c 9f be
       0.26025626 -0.20798424 -0.080816105 -0.3106428
000160 1e bf f5 3e 45 dc bf be 0b 1e f1 3d 6b 04 6b 3e
       0.47997373 -0.3747274 0.11773308 0.22950904
000170 ae 19 1e 3f c2 fc bc 3e 38 f6 f9 be 39 35 d2 be
       0.61757934 0.3691159 -0.48820662 -0.4105623
000180 d5 c7 2f 3f 90 6c 99 3e 90 dd d7 be 30 51 0d bf
       0.68664294 0.2996564 -0.42161226 -0.5520201
000190 78 f6 21 3f ab 30 e1 3e a3 db 9d be 3f 3d 36 be
       0.63266706 0.43982443 -0.30831632 -0.17796801
0001a0 e6 77 6d bf 58 77 05 bd dd 4e c4 be 86 da f9 be
       -0.92761075 -0.03258452 -0.38341418 -0.48799533
0001b0 29 50 c6 3d da 63 b2 3c cf 40 25 bf da d3 49 3e
       0.09683258 0.021776129 -0.64552015 0.19709721
0001c0 52 77 17 bf ac 23 d6 3e e3 be 27 3f 82 1f 35 bf
       -0.59166443 0.4182409 0.65525645 -0.707512
0001d0 82 0c ae be 84 c3 28 3e 19 2f 79 3e ec d8 92 3e
       -0.33993918 0.16480833 0.24334373 0.28681123
0001e0 ff 12 8e 3e 4a 7d 2d 3d 04 fb 0c bf 21 8e 97 3e
       0.27748868 0.042355813 -0.5507052 0.29600623
0001f0 59 8f f7 be eb 16 b7 be 2a a9 6a 3c d8 49 84 be
       -0.48351553 -0.35759673 0.014322558 -0.25837588

encoder_embed_action.0.bias f4 [64]
000000 31 7b 71 be ea 6d fe be 5e e6 92 be 52 bc ef 3d
       -0.2358215 -0.49693233 -0.2869138 0.11705841
000010 16 db eb be b2 23 14 be 45 79 cf 3e b9 a6 96 3d
       -0.46065587 -0.14466742 0.4052221 0.073560186
000020 5f 12 f7 3d 66 d3 1b be d3 22 b0 3d b4 90 d2 3e
       0.12064051 -0.15217361 0.08600392 0.41126025
000030 bd 8a 1d 3f 07 f1 00 3f 37 d5 1a 3f 34 70 89 bc
       0.6153982 0.5036778 0.6048159 -0.016777135
000040 12 9d 22 bf 28 58 cf be f6 03 eb 3e 24 5b 13 3e
       -0.6352092 -0.40496945 0.4590146 0.14390236
000050 78 87 d2 be 9f 93 c7 be 46 68 29 bf fe 0a 05 bf
       -0.4111898 -0.38979813 -0.66174734 -0.519699
000060 8e ee 12 3d ae a4 c5 3e 56 79 93 3e ef e4 12 bf
       0.035872035 0.38602203 0.2880351 -0.57380575
000070 f6 76 e4 3e d3 2d b2 be 1a 46 2b 3d 59 d3 c3 be
       0.4462201 -0.34800586 0.0418149 -0.38247183
000080 3c 39 5c be 31 ac 5d be 21 83 31 bf 88 4c 1c bf
       -0.21506208 -0.21647717 -0.6934071 -0.6105428
000090 33 b8 05 be b0 db 64 3e 5d 43 8f be af 1e 38 3e
       -0.13058548 0.22349429 -0.27981082 0.17980455
0000a0 c8 7c 14 bf b5 67 55 3d de 85 0c 3f f6 0d b5 be
       -0.580029 0.052100856 0.54891765 -0.35362214
0000b0 60 2a 35 3f 4f 9e 82 3e 69 5b 06 bf b8 ae ba 3e
       0.70767784 0.25511405 -0.5248323 0.36461425
0000c0 7e 5d 33 3e 85 12 bd be 2f c6 f8 3e e6 47 12 bf
       0.17516133 -0.36928192 0.48588702 -0.5714096
0000d0 7f a2 3b bb da e9 85 be cf 3b d8 3e 6d 85 55 3e
       -0.002863079 -0.26154977 0.4223313 0.20851679
0000e0 88 2c c7 3e 3c 56 b7 3e 86 5b bd bc 29 3f 9d be
       0.38901162 0.3580798 -0.02311493 -0.3071225
0000f0 b7 2c 15 bf 79 7c 9e 3e 09 bd 28 3f 56 85 c7 3e
       -0.58271354 0.3095434 0.65913445 0.38968915

encoder_embed_action.2.weight f4 [64, 64]
000000 dd ac 95 bd 80 e2 46 3b 15 d9 f8 bd 08 1f 65 bd
       -0.07308362 0.0030347407 -0.1215078 -0.055937797
000010 30 2c 95 bd e3 5c 8f bc 7e 5d 09 be 72 2f 41 be
       -0.07283819 -0.017500347 -0.1341457 -0.18865755
000020 1e 4f 40 3d f3 0b 5b 3c 1b 06 60 bd 1f 96 ef bd
       0.046950452 0.013369548 -0.054693323 -0.11698555
000030 df 67 0f bd a2 05 46 3e d6 59 ec 3c ca 40 8a 3d
       -0.03501117 0.19338086 0.02885143 0.06750639
000040 a0 24 39 3d 7f 17 30 3e b2 25 47 bd e6 97 ce 3c
       0.045200944 0.17196463 -0.048619933 0.025218915
000050 47 ab e4 bc 80 fd da 3d 00 3e 66 ba 84 de 8b 3d
       -0.027913703 0.106928825 -0.00087830424 0.06829551
000060 a9 ac b2 be db b4 c2 bc 82 a3 14 3e 01 82 2c be
       -0.34897354 -0.02376788 0.14515498 -0.16846468
000070 c9 ad b8 3d e2 dd ae 3d 6d af e1 3d 9d 89 44 bd
       0.09017522 0.085384145 0.11019788 -0.0479828
000080 fd 25 85 bd ad 58 3c 3d 52 64 04 bd a8 56 11 bd
       -0.06501386 0.045983005 -0.032322235 -0.035483032
000090 0b 56 3a bc 62 7a 0c 3d 7c b0 0e 3e 31 35 55 3e
       -0.011373053 0.0342964 0.13934511 0.20821072
0000a0 52 3a fd 3c 68 e1 6d 3e 35 c9 01 3e aa 12 c9 bd
       0.030911598 0.23230517 0.1267441 -0.09818013
0000b0 db dd 0c 3e c0 6e b4 bd ab 4e 1f bb 00 16 23 bd
       0.13756506 -0.088101864 -0.0024308364 -0.039815903
0000c0 f8 22 d3 3d 7b e2 39 3e 9d df a0 bc 00 d4 51 39
       0.10309404 0.18152802 -0.019637877 0.0002001077
0000d0 0f 3a fc bd da df 0f be 77 b7 02 3e 6b 63 30 be
       -0.12315761 -0.14050236 0.12765299 -0.17225425
0000e0 ee 44 64 bd 04 2b b8 3d e6 06 1c be fe e1 b3 3d
       -0.0557298 0.089925796 -0.15237007 0.08783339
0000f0 f2 b0 d3 3d 78 ab 84 bd 74 39 20 3b 28 38 20 3d
       0.10336484 -0.064780176 0.0024448307 0.039116055
000100 b7 ee e8 bd c7 e6 2b 3e 63 c9 e3 3b c9 ac 73 bd
       -0.11373656 0.16787253 0.0069514974 -0.059490953
000110 62 7b 93 bd 31 bb 30 3e d8 42 0e 3e f6 e6 62 3e
       -0.07201268 0.17258908 0.13892686 0.22158417
000120 f0 58 08 be 5a 52 56 3d d0 74 56 be 08 6f 8d 3d
       -0.13315177 0.05232463 -0.20942998 0.06905943
000130 f6 c4 51 3e 50 91 e8 bd 39 1a 7b 3c fb 96 07 3c
       0.20485291 -0.11355841 0.015326076 0.008275743
000140 42 0a f2 bd df 2b d1 3d c2 cb 83 bc 3a 94 97 be
       -0.11818363 0.10213446 -0.01608837 -0.29605275
000150 4d 41 31 3d 5f 48 27 be d0 fb 68 bc b0 0c 40 bd
       0.043275166 -0.16336201 -0.014220193 -0.0468871
000160 44 30 06 3e 7a 19 8a be c5 a4 41 be de f2 61 bc
       0.1310435 -0.26972562 -0.18910511 -0.013790814
000170 cc 71 7a bd b9 b7 53 3e c0 26 65 be 7b b8 01 3e
       -0.06114368 0.20675553 -0.22378063 0.1266803
000180 e4 e3 5d be c1 02 fd 3b 30 18 61 be ac 28 2d 3d
       -0.21668965 0.0077212756 -0.21981883 0.042275116
000190 74 35 0b be 7b 9e 44 be fd f6 00 be 99 ec 06 be
       -0.1359461 -0.1920108 -0.12594219 -0.13176192
0001a0 2e bb 9b 3e bc b6 71 be bb 4a ee 3d 2c 1f cc bd
       0.30416244 -0.23604864 0.116353475 -0.09966883
0001b0 2b c4 37 be 8b 27 1e be c5 2c 46 be 93 e8 ce 3d
       -0.17945926 -0.15444772 -0.19353016 0.10102954
0001c0 ae 82 39 be 86 5c a7 3c 6c a4 c7 bd 64 13 5a 3d
       -0.18116257 0.02042986 -0.09748158 0.05324115
0001d0 95 54 39 3e 1f 43 66 3d f7 91 54 3b 98 61 28 3d
       0.18098672 0.056216355 0.0032435635 0.041108698
0001e0 a4 3e ae 3d 57 d5 42 be 3f 29 9c 3e 85 48 a4 bd
       0.085080415 -0.19026695 0.30500218 -0.080216445
0001f0 ba ab 85 bd 86 04 d3 3d 56 6f 02 3e 87 76 8d 3d
       -0.06526895 0.10303597 0.12737784 0.06907373
000200 1c 5f 75 bd af 69 ca 3d a6 25 91 bd 7d 14 db bc
       -0.059905156 0.09883439 -0.07087259 -0.026743168
000210 b4 45 b1 3d 1e 51 ef 3d 6b e6 a0 3d f4 15 50 bd
       0.08655873 0.11685394 0.07856449 -0.050802186
000220 b8 ea b5 3c d4 89 4a bd 8e 02 0f be fb d2 15 be
       0.02220665 -0.04944785 -0.13965818 -0.14631264
000230 0e f2 66 3d 23 07 76 3e 64 d8 d8 bd 5a 19 28 bc
       0.056383185 0.2402616 -0.10588148 -0.0102599505
000240 aa 52 c1 3d e4 e1 8e 3e 1c f1 84 3d 3d 00 89 3d
       0.09439595 0.27906716 0.064913005 0.066894986
000250 25 f0 6b bc 68 d0 1f 3c 42 30 d2 3d b4 9b 74 3e
       -0.014400517 0.009754278 0.10263111 0.23887521
000260 ed ff e9 bd 68 ef a9 3d a4 d6 7b bc 64 4b c8 3d
       -0.11425767 0.08297616 -0.0153709985 0.097800046
000270 ba 01 b9 3d b0 c5 24 3e 3c 18 99 bd 23 4e c4 3d
       0.090335324 0.16091037 -0.074753255 0.09585216
000280 ce 87 0b be 82 4f 94 3d 6e 4d 32 3e f8 d6 59 3d
       -0.13626024 0.072417274 0.1741235 0.053183526
000290 88 05 a0 bd 2e a6 0c 3d 5b 6c 82 3c 31 09 4d 3e
       -0.07813555 0.03433817 0.015920809 0.20023037
0002a0 bb c4 5d be ca fb dc bd 8d 5e 19 be 07 8d dd 3d
       -0.21657078 -0.107902125 -0.14977475 0.108179145
0002b0 cc 7a 5a 3d 49 26 b0 3d 7f b1 8a 3e 47 a6 d4 bd
       0.053339764 0.08601052 0.27088544 -0.103832774
0002c0 f3 74 df bd bd 9d 0f 3e dd c7 20 be f8 c3 b1 3d
       -0.10910978 0.14025016 -0.15701242 0.08679956
0002d0 d2 d4 25 be 6e d5 7c bd 4e 49 44 be ef 3f 0a be
       -0.16194466 -0.06172698 -0.19168589 -0.13500951
0002e0 2d 1b 46 3d 6e a0 86 3e 6d 32 bd bd 2e dc 8d 3e
       0.04836576 0.26294273 -0.092381336 0.27707046
0002f0 ba a1 e3 3d 5f a9 e2 bd 68 47 5d 3d db d0 ce 3d
       0.11114831 -0.11067461 0.054023176 0.1009843
000300 5b 23 4c 3c 0f 49 9c 3e 8c 70 9a 3d 9d b1 20 3d
       0.012459601 0.3052449 0.07540998 0.039231885
000310 2c 32 33 bd 44 11 d8 3d 5c b0 a7 3d 9a 4c 2e 3e
       -0.04374902 0.10550168 0.08187935 0.17021409
000320 39 1e 06 be d6 b2 85 bc 5d 63 21 be 1c 4d d1 3d
       -0.13097467 -0.016320627 -0.1576056 0.102197856
000330 c2 50 10 3d eb fa 17 be 0c 16 22 be 0a 78 83 3d
       0.035233267 -0.14841811 -0.15828723 0.0641938
000340 8c b5 a3 3d 2f f0 cd bd 39 dc bc bc 19 2c 39 3d
       0.07993612 -0.10055577 -0.02305423 0.04520807
000350 c8 8e 7d 3d e5 7e 8c be 62 03 f5 3d 9d d9 12 3b
       0.061903745 -0.27440563 0.11963536 0.002240754
000360 6e 76 63 3e d7 09 93 3c fc 34 0b be 8c a7 c7 3d
       0.22213146 0.017949028 -0.1359443 0.09748754
000370 6b ad 8c bc ef 57 69 3e 9a 72 26 be ba 43 92 bb
       -0.017172536 0.2278745 -0.16254655 -0.00446364
000380 69 c0 92 bd 95 db dc bc 06 b6 69 bd a2 c1 ec 3d
       -0.071656056 -0.026960174 -0.057058357 0.1156037
000390 81 fa 32 bd 03 bf 1b be d0 ab 1b be e0 53 8c bd
       -0.04369593 -0.15209584 -0.1520226 -0.068519354
0003a0 7b 44 b0 3d 34 5b 84 be e2 1a e8 bd b8 70 bb bd
       0.086068116 -0.25850832 -0.113332525 -0.09152359
0003b0 8b 0d 28 be 17 af d6 3c e3 85 3d be ad 3d e6 3d
       -0.16411416 0.026206536 -0.18508105 0.112422325
0003c0 c7 3d f9 3c 88 b4 92 bc 59 9f f7 bd 20 71 37 bd
       0.030424966 -0.01790835 -0.1209094 -0.04478562
0003d0 45 a4 58 3e 40 5f 8c bd a6 59 0e 3c 1d 58 88 bd
       0.21156414 -0.06854105 0.008688366 -0.06657431
0003e0 38 4f a7 bd 52 55 84 be 8a 46 11 3e 60 dc 81 bb
       -0.08169407 -0.25846344 0.14187065 -0.0039630383
0003f0 72 4c f2 bd 50 a2 ff 3d 05 b4 b8 3c 6e 24 82 bd
       -0.11830987 0.124821305 0.022546778 -0.06354605

encoder_embed_action.2.bias f4 [64]
000000 c8 79 6c bd 34 9d e9 3d bf 69 b2 3c db 07 de bd
       -0.057733327 0.11406937 0.02177894 -0.10841342
000010 c9 b4 86 bd 32 46 c3 bb e0 5c ce 3d 29 af 23 bd
       -0.06577451 -0.0059592957 0.10076308 -0.039961968
000020 b6 a3 d6 3b 45 9b 14 3e f1 ec 2f 3e c0 0a 90 3d
       0.0065502776 0.14512356 0.1718023 0.070333004
000030 ef 32 57 bc 20 73 20 be a6 6b a3 3b 84 d8 f5 3d
       -0.013134702 -0.15668917 0.004987198 0.12004188
000040 83 bb af bc b6 53 84 bd c3 62 d1 bc e2 26 38 3d
       -0.021451717 -0.06461279 -0.025559789 0.044958957
000050 f7 db af bc 18 50 d4 bc 95 eb df 3d 9a 44 3d 3d
       -0.021467192 -0.025917098 0.109336056 0.046208
000060 cd 67 2f be dd 34 b4 3d 39 d1 70 3e 56 0c 71 bd
       -0.1712944 0.08799145 0.23517312 -0.058849655
000070 b9 77 94 bd ab 37 27 3d 18 ad b8 bc dd ce 65 3d
       -0.07249398 0.040824573 -0.022543475 0.056105483
000080 72 e2 05 be cc 1f 0d 3d ed 1e 57 bd 05 0e 07 be
       -0.13074663 0.034454152 -0.052519727 -0.13188942
000090 29 6e 2e bd 0a b2 51 3d 38 24 4e 3e 4e fb 4d be
       -0.042585526 0.051195182 0.20131004 -0.20115396
0000a0 a7 46 fd 3d 84 19 d8 3c d6 96 4e bb 31 ba 20 3d
       0.123669915 0.026379354 -0.003152301 0.039240066
0000b0 d4 49 23 be 9d 10 da 3d ac e8 2d 3e 02 c3 21 3d
       -0.15946132 0.106477 0.16983289 0.039492615
0000c0 75 38 66 bc 13 07 a2 3c 63 84 a1 3d 4e ff 95 bd
       -0.014051546 0.019778764 0.07886579 -0.07324086
0000d0 98 68 c3 bd 79 b6 6d bd c6 9a 80 3e 75 77 13 be
       -0.09541434 -0.058035348 0.25118083 -0.14401038
0000e0 0f 27 5c be 87 76 d9 3b a3 c9 00 3e 5f 31 cf bc
       -0.21499275 0.006636444 0.12576918 -0.025292097
0000f0 57 3f c3 bd a0 f1 2e be 96 bd 1e 3e 0b e5 95 3d
       -0.095335655 -0.1708436 0.15502009 0.07319077

decoder_embed_action.0.weight f4 [64, 2]
000000 65 40 cd be 32 4c 9e 3d 14 96 26 3f f1 6d ee 3d
       -0.40088192 0.07729377 0.6507275 0.116420634
000010 f7 67 b3 be bc ef c1 3c 1e 0a 26 bf 58 48 e8 be
       -0.35040256 0.023673885 -0.6485919 -0.45367694
000020 d1 d9 11 3d 3c b2 e5 be 16 01 bf 3e 48 3f e2 3e
       0.035608117 -0.44862545 0.37305516 0.44188905
000030 32 36 0d 3f fa 98 8b be 00 67 c9 bd 26 a5 36 3e
       0.5516082 -0.2726515 -0.09834099 0.17836437
000040 57 46 86 be e3 ab 5f bd 56 93 31 bf ce 5e 08 3f
       -0.2622554 -0.054607283 -0.6936544 0.5326966
000050 f3 71 22 3f 5d 6c 16 bf dd 5f a1 bd c7 a0 33 bf
       0.6345512 -0.587591 -0.078796126 -0.701672
000060 ca cc 00 bf ee 64 29 3f 0e 87 8d 3e 1a 03 3e 3e
       -0.50312483 0.6616963 0.276421 0.1855587
000070 fd 2e 8a 3e 4a 62 de 3e 66 37 f8 3e 89 ff 3e bf
       0.26988974 0.43434364 0.48479766 -0.74608666
000080 cb 37 99 3e 50 ff 42 bf 7d c9 c1 be 03 44 82 be
       0.2992538 -0.76170826 -0.37849036 -0.25442514
000090 10 e6 e1 bd d6 98 d1 be 7e 29 90 3c 14 35 e7 3d
       -0.11030209 -0.40936917 0.01759791 0.11289421
0000a0 94 cd d6 be 0f a0 d1 3e 1e 72 2e 3f 60 c4 0c be
       -0.4195372 0.40942428 0.6814288 -0.13746786
0000b0 92 1d c9 be 82 f7 bb be c6 6d cc be 05 fd c2 be
       -0.39280373 -0.3671227 -0.399275 -0.38083664
0000c0 2a 48 f2 be f6 cc 6b be 0e 71 c7 3e 6f 94 62 3e
       -0.47320682 -0.23027405 0.3895344 0.22126935
0000d0 7b af e2 3e 35 b1 43 3f ba 95 22 be a0 4b cb be
       0.44274506 0.7644227 -0.15877429 -0.39706135
0000e0 0c b2 1f 3e 77 08 e8 be 9f 94 51 3e 6d e2 97 be
       0.15595263 -0.45318958 0.2046685 -0.29664937
0000f0 33 66 f9 be c5 b4 24 bf 7e c9 30 bf c4 49 98 3e
       -0.48710784 -0.6433833 -0.6905745 0.2974378
000100 15 21 b8 3e 5f fd 0e 3f d8 60 47 be d5 4a d2 be
       0.3596274 0.55855364 -0.19470537 -0.41072717
000110 2b ce 92 be aa fc c7 be 19 91 d5 bd 23 93 42 bf
       -0.2867292 -0.39059955 -0.10428066 -0.7600576
000120 f0 b1 fe 3e 5a ae 52 bf 1e c3 22 bf e8 86 0e 3f
       0.4974513 -0.8229729 -0.63578975 0.556746
000130 b7 bf 1c bf 38 48 c0 3e e5 35 82 3e 8c fc 19 3f
       -0.61230034 0.375551 0.25431743 0.6015098
000140 c4 a4 e8 3e 0a a0 c8 be 89 31 a6 3e 0c 1d 53 bb
       0.45438206 -0.391846 0.32459667 -0.0032213358
000150 82 5d 6f be dd ed d6 b8 cc bf 7c bc f9 74 0e 3f
       -0.23375514 -0.00010248621 -0.015426587 0.55647236
000160 02 d8 90 3e c1 7e d4 3e bc 28 0b 3e d2 3a 21 3d
       0.282898 0.41502956 0.13589758 0.039362736
000170 d6 04 98 3e 24 28 2e 3e b2 5b 41 bf b5 cc 36 3d
       0.2969119 0.170075 -0.7553054 0.044628818
000180 48 c7 a0 be 04 fd bf be c6 72 5b 3e 91 0a 8b 3e
       -0.3140204 -0.37497723 0.21430501 0.271565
000190 41 3c f5 3d c3 be ab be e6 49 a7 3e d1 df 29 3f
       0.11974383 -0.33543977 0.32673568 0.6635714
0001a0 bd 29 b1 3d b4 ce 94 3e 5b 2a 50 bf 37 f7 08 3f
       0.08650539 0.29063952 -0.8131463 0.5350222
0001b0 37 91 34 3d 60 5d be 3e ce e7 c6 3e 3e 5b 78 be
       0.0440838 0.37180614 0.38848728 -0.24253556
0001c0 a7 9a 56 be a4 85 28 3f a7 d9 18 3f a1 a9 31 bf
       -0.20957433 0.6582892 0.5970711 -0.6939946
0001d0 6b 71 16 3f f3 86 51 3f 47 eb 82 3d e3 1a 04 bf
       0.5876681 0.8184654 0.06392532 -0.51603526
0001e0 cc 83 7d 3d 12 42 8a bd 2c 12 23 3f c0 2a 54 bf
       0.06189327 -0.06750883 0.63699603 -0.8287773
0001f0 7a df 38 3e ba 7a 2e be 4b e9 16 be df d2 18 3f
       0.18054 -0.17039004 -0.14737432 0.59696764

decoder_embed_action.0.bias f4 [64]
000000 6f 08 d4 3d 35 bc 11 bf d2 30 d3 be 31 f6 90 be
       0.10353171 -0.56927806 -0.41248184 -0.2831283
000010 b8 ef 81 3e b1 c7 81 3d c5 84 c4 bd 84 e3 8e be
       0.25378203 0.06336916 -0.09595636 -0.27907956
000020 72 fd 93 3e ac 01 30 bf 95 79 00 3f 30 50 d2 3d
       0.289043 -0.6875255 0.5018552 0.10269201
000030 f8 44 8f 3e 37 44 d7 3e 4a 0a 6f 3d 38 e5 9c 3e
       0.27982306 0.4204423 0.05835942 0.3064363
000040 76 0d 97 be 4f 20 1d 3f 98 24 c7 3e 0b 72 e3 bd
       -0.29502457 0.61377424 0.38895106 -0.11105736
000050 43 fb 25 3e 4e 53 34 3d 6b fd 0c 3f 0a 09 cf 3e
       0.1620913 0.044024758 0.55074185 0.40436584
000060 5c c7 14 3f f2 8a 24 bf 35 f5 f7 3e 25 e7 b4 3e
       0.581167 -0.64274514 0.48429266 0.353326
000070 39 fb d3 3e 9d 0a 17 bd bc 4d 0f 3f 57 ed f3 3e
       0.41402605 -0.036875356 0.5597799 0.47642013
000080 01 68 5a be b0 87 14 bf 8b 96 33 3f 69 b6 8e bd
       -0.21328737 -0.5801954 0.70151585 -0.06968386
000090 3a 4c 67 be 0e c5 7e 3e 24 73 9b 3e 3d dc 42 be
       -0.22587672 0.24879858 0.30361283 -0.19029327
0000a0 72 91 99 3d 08 d0 5d be 37 64 22 3f 0f 28 8b 3e
       0.074984446 -0.21661389 0.63434166 0.27179
0000b0 ea 36 d5 3e 17 ff f3 3e ef 79 bd be 01 e4 82 3d
       0.4164346 0.47655556 -0.3700709 0.063911445
0000c0 13 99 1c bf 5f d2 b1 3e 82 6d 33 bf 57 e9 34 bf
       -0.6117107 0.34730813 -0.7008897 -0.7066855
0000d0 32 ef 32 bf 23 53 78 3e 59 d2 f5 bd 2e ec ba 3d
       -0.69896233 0.24250464 -0.12003011 0.09127079
0000e0 16 4d 92 bd 5a 25 30 be 49 89 76 be 2f f6 03 bf
       -0.07143609 -0.17201748 -0.24075808 -0.5154752
0000f0 52 ef 7b be 44 04 91 be 0b ff dc 3c 17 e2 b2 3e
       -0.24603012 -0.28323567 0.026977083 0.34938118

decoder_embed_action.2.weight f4 [64, 64]
000000 f9 9d a0 be 74 c9 7b 3d 8c 69 be bd 44 22 54 bd
       -0.31370524 0.061471418 -0.09297475 -0.05179049
000010 69 9a 09 be 1c 2d d5 bd ac 9e 86 3b 00 20 44 b8
       -0.13437809 -0.104089946 0.0041082706 -4.6759844e-05
000020 e3 3f 38 be 38 bf 53 bd 20 6f 02 be c6 12 85 be
       -0.17993121 -0.051696032 -0.12737703 -0.25990885
000030 66 b4 5b be c3 69 38 be 95 9d fa bd a8 91 62 be
       -0.21455535 -0.18009095 -0.12237088 -0.22125876
000040 32 c2 3a be 9d 1c 1c bd 9f ae a0 bc 60 60 20 bd
       -0.18238142 -0.038113225 -0.019614516 -0.03915441
000050 58 02 6a be b1 04 26 be 7f bd a5 bd 2e 1e c5 bd
       -0.22852457 -0.16212727 -0.08092784 -0.09624897
000060 8b ef 29 be d4 76 e1 bd 21 0b 22 be 26 ed 24 be
       -0.16595285 -0.11008993 -0.15824558 -0.1610609
000070 5f 99 80 bd 4c 70 47 be 55 9c 62 bd c0 b2 d3 bd
       -0.06279253 -0.19476432 -0.05532487 -0.10336828
000080 4f 42 e4 bd 60 24 e4 bd b0 4e 86 bb ff 2b 60 be
       -0.1114546 -0.111397505 -0.0040987357 -0.21891783
000090 d4 0a c8 bd 8b 47 3a be 2d 86 79 be d3 9a 1c be
       -0.0976769 -0.18191354 -0.2436759 -0.15293436
0000a0 69 49 1d be f0 7d 4d bd 4c 41 11 be 41 8a 83 bc
       -0.15360035 -0.05016893 -0.14185065 -0.016057136
0000b0 6b 22 74 be 88 1f 82 bd de 67 d7 3d e5 7a 00 be
       -0.23841254 -0.0635367 0.10517858 -0.1254688
0000c0 02 a7 9f bd a4 31 f8 bd c0 ee f2 3c 38 8a 62 3d
       -0.07795526 -0.12118843 0.02965486 0.055307597
0000d0 d8 a1 1b bd 13 89 22 be 94 0e 3b be 6a b7 6a be
       -0.037996143 -0.15872602 -0.1826728 -0.2292153
0000e0 39 ab 87 bd e1 41 85 be bd 72 47 3d d1 0e 37 3d
       -0.06624455 -0.26026824 0.048693407 0.044691864
0000f0 63 e7 41 3d 97 57 5b bd a2 db 12 be 4f 1d 40 bc
       0.04733981 -0.05355033 -0.14341596 -0.011725738
000100 f6 d3 83 3d 58 ce ce 3d a0 4d 32 3c f8 9a cd 3d
       0.06436913 0.10097951 0.010882765 0.100393236
000110 bb 7a 1c 3d c8 ca f2 bd 70 80 df 3c 80 10 1a 3b
       0.038202982 -0.11855084 0.027282923 0.002350837
000120 63 69 f7 bd a4 97 28 bd 75 d4 8c 3d e0 1a ef 3d
       -0.12080648 -0.04116024 0.068764605 0.11675048
000130 db f7 aa 3d 13 b2 fd bc 94 92 a7 bd 05 b2 57 3d
       0.08348056 -0.030968701 -0.081822544 0.052660007
000140 ea 70 10 3e f9 37 48 bc 11 e2 b4 bd 90 50 52 3d
       0.14105573 -0.012220376 -0.08832181 0.05134636
000150 c8 57 d2 bd 1a 00 ea 3d 0e 7f 94 3d 8e 44 a8 3c
       -0.10270649 0.114258006 0.07250796 0.020540502
000160 6e c8 80 3d 44 62 9b 3d 12 85 9f bd a7 88 0d be
       0.06288229 0.07587102 -0.07789053 -0.1382166
000170 ca 00 81 bc 4d bf 41 3d c1 1b 43 bd ed 19 c1 bc
       -0.015747447 0.04730158 -0.04763389 -0.023571933
000180 90 c3 e4 3d a4 66 53 3d 44 28 6e 3d 22 b4 f9 3d
       0.11170113 0.051611558 0.05814387 0.12192561
000190 09 b3 0a 3e 8b e5 4c bd 02 39 27 bd 57 25 cf bc
       0.13544859 -0.050023597 -0.04082585 -0.02528636
0001a0 5b 5b 0c 3e 41 5f df 3d a1 81 77 3c c8 c7 ce bc
       0.13706724 0.1090684 0.0151065895 -0.025241747
0001b0 59 5a 8f bd ef 96 1b be 08 9c bd bc 71 03 2a be
       -0.06999654 -0.15194295 -0.02314569 -0.16602875
0001c0 c0 fe bc bd c5 cd 62 bd 38 71 c9 bc 30 91 ce 3c
       -0.09228277 -0.05537202 -0.02459012 0.025215715
0001d0 c6 8d b9 bd 53 93 94 3d ce 9d ec bd 82 24 0a bd
       -0.09060244 0.07254662 -0.11553536 -0.033726223
0001e0 00 79 a0 bc d3 f9 52 3d d8 ed a3 3e 35 9c 02 3b
       -0.019588947 0.051507782 0.32017398 0.0019929532
0001f0 50 ea dd bc ed f8 c4 3d e9 0a 55 3d 86 2d 47 bd
       -0.027089268 0.09617791 0.052012358 -0.0486274
000200 14 d4 bb bc 76 aa f8 bd e4 2f b2 bd 14 00 c8 3d
       -0.022928275 -0.12141888 -0.08700541 0.0976564
000210 8a f8 3f 3e 3c e9 cb 3d 66 29 db bd 10 59 8d 3c
       0.18747154 0.09956595 -0.107012555 0.017254382
000220 a3 44 0f 3e f0 c7 ae bd 7a 6d 95 3d ab 58 85 bb
       0.13991027 -0.08534229 0.072962716 -0.004069408
000230 80 1b 95 bb d2 1e a4 3d b5 0d bd 3d 0b 69 56 3e
       -0.0045503974 0.08013691 0.0923113 0.20938508
000240 00 c1 9a bc 34 15 b0 3d 9d 02 da 3d 5a f9 8e 3d
       -0.018890858 0.08597794 0.1064503 0.06981154
000250 f8 db 81 3d 35 88 ac 3d d9 00 a8 3d 93 f2 97 3c
       0.06340784 0.08424417 0.08203287 0.018548286
000260 91 d4 b5 3d 36 a8 ec bd f6 d7 03 3d 15 90 15 3d
       0.088784344 -0.11555521 0.03218838 0.03651436
000270 31 7f 4f 3e ff 9a 16 bb 19 13 6e 3e 72 02 14 3e
       0.20263363 -0.0022980568 0.23249473 0.14454058
000280 0e b8 2c 3d e4 17 d4 3d b3 37 9e 3d 5d 7e 92 bd
       0.042167716 0.10356119 0.077254675 -0.07153008
000290 a6 0a 94 3d 9d 22 1f 3e 6f 91 cb bc a9 33 94 3d
       0.072285935 0.15540548 -0.024849622 0.07236416
0002a0 a3 c0 91 3d 81 e7 cf bd 0b cc e9 3d 06 23 4b 3d
       0.07116821 -0.10151578 0.11415871 0.049593948
0002b0 eb ba a5 3c 72 e6 4f 3e b0 c5 b5 bd 5e 17 13 3d
       0.020230731 0.20302752 -0.088755965 0.035910957
0002c0 d0 86 2a 3d fe 08 0c 3d 04 37 77 3d f4 98 d4 bd
       0.041632473 0.034188263 0.0603552 -0.10380736
0002d0 38 7e f4 3d b8 69 15 3e 64 28 c5 3d 59 21 c8 3b
       0.11938137 0.1459111 0.096268445 0.006107491
0002e0 87 77 0a 3e 82 e2 a4 3c a7 5b a3 bd e2 c7 00 bd
       0.13522159 0.020127539 -0.07976466 -0.031440623
0002f0 00 23 8f bd 61 1e 05 bd 9f 12 23 be 2f 2d 4e 3e
       -0.069890976 -0.032499675 -0.15925072 0.20134424
000300 2d 1e 4f 3e a4 84 20 3d 8c a7 4c bd 80 2e 27 bd
       0.20226355 0.039188996 -0.049964473 -0.04081583
000310 99 c1 e6 bd dc 21 e4 bc 39 8f 14 3e 32 a4 9f 3d
       -0.112673946 -0.027848177 0.1450776 0.0779499
000320 01 61 de bd 4c 0a 1d 3d 95 12 75 bd 4d a9 87 be
       -0.10858346 0.038339898 -0.059832174 -0.26496354
000330 15 49 3b 3d 60 58 b3 bc 2b 96 20 3b a0 0a 5c bc
       0.045723993 -0.021892726 0.002450357 -0.013430268
000340 b6 32 43 3b 66 0a d2 bc c4 ac 19 bd 20 1d 1a 3c
       0.0029784865 -0.025639724 -0.037518278 0.009406358
000350 a6 2c a5 3b ec 32 e9 3d ef 51 bb 3d e4 d3 0d bd
       0.005040723 0.11386666 0.09146487 -0.034625903
000360 59 7b bb ba ba 44 ce 3d 0b 41 14 3e 3e 4b 05 be
       -0.0014303728 0.10071702 0.14477937 -0.13016984
000370 11 f0 a0 bd 93 b7 f5 bd 68 fd ef 3c c8 44 ff 3d
       -0.07858289 -0.11997905 0.029295638 0.12464291
000380 bf bc 00 3e 6c 3c 24 3d 8a d5 b4 3c a6 11 6e be
       0.12572001 0.040096685 0.02207448 -0.2324892
000390 24 d9 09 bd 1f 7c 02 3e 10 9e 50 3d 61 fb 29 3e
       -0.033654347 0.12742661 0.05093199 0.165998
0003a0 60 15 05 3d e7 a8 57 3d 11 94 03 3e 94 43 8a 3d
       0.032491088 0.052651312 0.12849452 0.06751171
0003b0 c0 64 b6 3d 81 f4 58 bc da a0 98 3d b8 ed 1b 3e
       0.08905935 -0.013241888 0.07452555 0.15227401
0003c0 9c 04 d3 bd da 61 ac 3d d8 e4 3d 3d f0 63 e1 3c
       -0.103036135 0.08417101 0.04636082 0.027513474
0003d0 04 d7 59 3d c6 94 a9 3d 27 ad 0e 3e 6f 45 81 3d
       0.05318357 0.082803294 0.1393324 0.063120715
0003e0 2b 5f 97 3d 90 68 c7 bd d5 cc e1 3e 96 d3 32 bb
       0.07391199 -0.097367406 0.44101587 -0.002728676
0003f0 02 f5 19 be f5 0f 18 bd 62 6b 8d 3d 12 d9 ad bc
       -0.1503487 -0.037124593 0.06905247 -0.021221671

decoder_embed_action.2.bias f4 [64]
000000 94 84 bb bd 58 e5 30 3d d7 b3 4e 3e ab 38 b9 3a
       -0.09156147 0.04318747 0.20185791 0.0014131268
000010 42 49 16 be af d8 b5 bd 70 25 88 3d 38 f2 2e 3e
       -0.14676383 -0.0887922 0.06647766 0.17084587
000020 62 cc 00 3e db 0e 06 3c 3e e7 09 be e9 45 a5 3d
       0.12577966 0.008182253 -0.13467118 0.08069975
000030 84 9c 47 3e 80 7a 35 be 0d ec 4a 3d 04 f6 fe 3c
       0.194933 -0.17722511 0.04954152 0.031123169
000040 80 2f 0d be 69 e6 80 bc 6d 50 b8 3d 5f 7e 2f 3e
       -0.13787651 -0.015734868 0.08999715 0.1713805
000050 b8 27 25 3e 64 92 27 be fd 2b 9f bd 83 d4 77 bd
       0.16128433 -0.16364437 -0.07772062 -0.0605054
000060 f4 17 05 3d 95 6e 9b 3d df 8c 19 3e bc 0e c5 bd
       0.032493547 0.07589451 0.14995144 -0.09621951
000070 0d fb 7b 3d 87 08 48 bc 91 78 12 bc 13 1e e3 bd
       0.061518718 -0.012209064 -0.008939878 -0.110897206
000080 8c 80 de bc f4 80 6a bd a6 87 5a 3d b7 c1 71 bb
       -0.027160905 -0.057251886 0.05335202 -0.0036889145
000090 c5 bf 16 3e 61 a9 02 3d b4 40 48 3d 88 e9 2e bd
       0.14721592 0.031899814 0.04888983 -0.04270318
0000a0 77 8e 04 bd 5d ce cf bd 3b 95 ce 3d 46 50 27 bd
       -0.032362428 -0.101467825 0.10087057 -0.04084804
0000b0 90 2c b8 bc be 90 42 3e d0 06 4c 3e 1a fb b6 3d
       -0.022482187 0.19000527 0.19924474 0.089346126
0000c0 b3 ad 4a 3d cf ec 85 3d b8 03 7c 3e ab 4e e8 3d
       0.04948206 0.06539308 0.24610794 0.1134313
0000d0 c3 2f 45 bd ea 32 9c bd 17 08 3a bd 1a 90 e4 bd
       -0.048141252 -0.076268986 -0.04541787 -0.11160298
0000e0 37 14 d3 3d 2b 8d 02 3d 9a 28 36 3e cf 66 ad 3d
       0.1030659 0.03187291 0.17788926 0.08466875
0000f0 e2 5f 23 bc 94 3f a1 bc 47 54 09 3d 25 62 8f bd
       -0.009971591 -0.019683637 0.03352764 -0.070011415

decoder_head_action.0.weight f4 [64, 64]
000000 b6 6d e4 3d 29 3c 84 bd 71 08 85 ba 69 df fd bd
       0.11153738 -0.06456787 -0.001014961 -0.12396128
000010 2c 95 24 be 2c f6 79 bd 5c 11 62 bd ac 5f 8f bc
       -0.1607253 -0.061025783 -0.055192336 -0.017501675
000020 11 de d1 3c 64 33 11 be cc e0 31 3e 1f 37 08 3d
       0.025618585 -0.1417976 0.1737091 0.033255693
000030 af 0b 44 3d 9e e1 43 bd b9 5b 33 bd 6f 05 0a 3d
       0.047862705 -0.047822587 -0.043788645 0.033696588
000040 a9 a7 5b 3d 3d 7c 8d be b5 99 10 be 3c 61 f2 bc
       0.05362669 -0.2763385 -0.14121135 -0.02958738
000050 df 63 b4 3d 0d 5c 8c bb aa 4e e5 bd 34 e4 95 bc
       0.088081114 -0.0042834342 -0.111966446 -0.018297292
000060 41 ac 85 bd 55 b2 1e 3c 15 86 78 bc 45 1c a5 3d
       -0.065269955 0.009686072 -0.015168686 0.080620326
000070 79 f5 6b 3d cd 94 c4 bc 23 ae 95 3c 08 2a 3c 3d
       0.057607148 -0.023996735 0.018271511 0.04593852
000080 24 34 bd bd 45 21 e4 bd 84 4a 28 3e 5f be 9c bc
       -0.09238461 -0.11139158 0.16434675 -0.019133745
000090 ba 81 80 3c e7 67 81 3d 0f 1b 27 bd ca 58 9b 3c
       0.015686858 0.06318646 -0.04079729 0.018963236
0000a0 a1 14 ee bc 2d a4 ed bd 2d 68 55 3d 0c 49 d6 3d
       -0.029062571 -0.1160358 0.052101303 0.10463151
0000b0 2b d6 bb bc 58 e8 5c bd b3 8b 8b 3d 23 0a 3e bd
       -0.022929272 -0.053932518 0.06813755 -0.046396386
0000c0 39 9a df 3d 41 5b 8d bd 72 1f c5 bd 13 41 cf 3d
       0.109180875 -0.06902171 -0.09625138 0.10119834
0000d0 f7 f2 bb 3d 62 52 be bd 06 04 f9 bb 77 91 57 3b
       0.09177201 -0.09293057 -0.0075993566 0.00328931
0000e0 f0 51 06 3e 1c e0 ae 3d 4f 53 e5 3d 26 3f 17 3d
       0.13117194 0.08538839 0.111975305 0.036925457
0000f0 66 c4 14 3d eb d7 45 3d cb a5 cd bd 72 eb f4 3d
       0.036320113 0.04830162 -0.10041388 0.1195897
000100 65 5d 95 bc f7 78 c7 3d dc 80 1a 3e ea c9 34 bd
       -0.01823301 0.09739869 0.15088218 -0.044137873
000110 d5 fa a5 bc 1d 93 ff bd 08 42 80 3d 83 a9 bd bd
       -0.020261208 -0.124792315 0.062625945 -0.092608474
000120 bf b3 fd bb 70 a1 c4 bd 12 3b d7 3d ec e3 75 bd
       -0.0077423747 -0.09601104 0.10509314 -0.060031816
000130 45 c7 12 3e 8f 3f 4a bd 91 c3 30 3d b5 87 83 bd
       0.14333828 -0.04937702 0.043155257 -0.064223684
000140 8f 62 81 be 9a 35 e2 3d dd a9 82 bc 88 21 02 bd
       -0.25270507 0.1104538 -0.015950138 -0.03177026
000150 66 cc 45 bd 4b da 1a bc 86 46 90 3c 58 16 96 bd
       -0.048290633 -0.009451459 0.017611753 -0.073284805
000160 b5 6c 1e 3d 01 bc b2 bd 3a f3 0a 3d c7 41 2c 3d
       0.03867789 -0.08727265 0.033923365 0.042054918
000170 67 35 a6 bd a1 08 d2 bd 95 fa b3 bd 34 24 c1 3c
       -0.081156544 -0.10255552 -0.08788029 0.023576833
000180 95 86 9f 3d a0 15 c5 bd 59 53 bc bc df 8d 0d 3e
       0.07789341 -0.09623265 -0.022988962 0.13823651
000190 ed fd df 3d 2f e0 04 3d ec 0a be 3d 25 2b 95 3d
       0.109371044 0.03244036 0.09279427 0.0728362
0001a0 2e 6d b3 bd bc 1f a9 3d 0d 48 5d bb 91 fa b3 3c
       -0.08761059 0.08258006 -0.003376487 0.021970065
0001b0 62 79 72 bd 07 37 6e 3d d2 4d 10 be 15 d6 8d 3b
       -0.05919779 0.058157947 -0.14092186 0.004328499
0001c0 4f d0 68 bc 14 bc a1 bd 86 13 e3 3a fb 2c 8e bb
       -0.014209821 -0.07897201 0.0017324544 -0.004338858
0001d0 f0 03 6e bd 21 37 87 bd 5b 04 36 3e 00 84 1a 3e
       -0.058109224 -0.06602312 0.17775099 0.15089417
0001e0 91 0e 58 3e c1 19 ac bc 40 c6 94 3d fb a9 e6 3c
       0.21099307 -0.021008374 0.07264376 0.028157225
0001f0 01 d8 e1 3d fc ca 23 bd e7 c0 51 be 05 1c ac bd
       0.110275276 -0.039988503 -0.20483743 -0.08403782
000200 5b d5 ac 3c 77 d7 ba 3d 72 58 a5 3d cc fb 70 bd
       0.02109783 0.09123128 0.0807351 -0.058833882
000210 55 1f 77 bc 8b 5a 48 3d 2b 5c ab bc 05 70 5c 3c
       -0.015083154 0.048914474 -0.020917973 0.013454442
000220 81 fd 23 3d 8c 3e a7 bd b7 66 10 3c 5e 55 e8 bc
       0.040036682 -0.08166227 0.008813552 -0.028361019
000230 6d bf 07 3e 04 74 e5 bd 7e d6 d9 3d 6b 45 d5 3d
       0.13256617 -0.11203769 0.10636614 0.10413631
000240 2e 0f e0 bd 23 4a 8b bd 2d 3d 62 bc 58 64 86 3d
       -0.10940395 -0.0680125 -0.013808531 0.06562108
000250 b1 ed 88 3d 10 d0 69 bd f5 5b d5 3c 0c 20 ad bd
       0.06685961 -0.05708319 0.026044825 -0.08453378
000260 25 b8 9f 3d 5d ed 06 be 65 14 75 bd 00 b7 b5 3d
       0.07798795 -0.13176484 -0.059833903 0.08872795
000270 08 c9 79 3d d8 f7 77 3d 2e ea b1 3d 02 f0 c8 bd
       0.060982734 0.060539097 0.08687244 -0.09811403
000280 53 98 1e bc b1 55 7e bb a8 a9 ee 3d e0 73 b6 bc
       -0.009679872 -0.00388084 0.11653453 -0.02227205
000290 35 2b 2d bd 4b 07 cc 3d 60 8f 90 3d f7 84 a1 bd
       -0.042277534 0.099623285 0.070585966 -0.07886689
0002a0 fc bc 00 be ef 68 82 bd 0f 5d 3f 3d 56 c9 12 3e
       -0.12572092 -0.06367671 0.046719607 0.14334616
0002b0 26 d8 6f 3d f3 91 ba 3d ce 18 11 3d ed bd ac ba
       0.058555745 0.09109869 0.035424046 -0.0013179161
0002c0 1f ca 7e bd 41 87 0b 3e 30 04 c7 3c bd 31 c6 3c
       -0.062204476 0.13625814 0.024293989 0.024193639
0002d0 06 eb bc 3d 54 43 9c 3d 44 af b9 3c 9e 90 8a bc
       0.09224515 0.07630029 0.022666581 -0.016914662
0002e0 60 57 45 bd 4a aa 79 bd c2 09 71 bd cd 3b d8 3d
       -0.04817903 -0.060953416 -0.058847196 0.10558281
0002f0 f2 df c3 3d bf 45 07 bd 3f d9 ad 3d 20 f3 fa bc
       0.095641986 -0.0330255 0.08488702 -0.03063351
000300 2b 68 0d be 2a 23 3e 3e 33 b2 80 bd 84 dd 29 3e
       -0.13809268 0.18568102 -0.06283989 0.16588408
000310 8d cb 89 3d a6 ee a3 bd 7c 4f ed 3d 75 a3 a6 bd
       0.06728277 -0.08004503 0.11587426 -0.08136646
000320 e1 d7 a0 3c 82 fa 2a bd 7a 92 02 3e 82 12 87 3d
       0.01963419 -0.04174281 0.12751189 0.06595327
000330 02 be 90 3d 89 0b dd 3d ce da bf bd 36 f5 31 3e
       0.07067491 0.10793216 -0.093679056 0.17378697
000340 4d b5 46 3e 66 6d 3c bd 06 15 6e 3e 21 ae c9 3d
       0.19405098 -0.046002768 0.23250207 0.098476656
000350 4d 0d fd 3c c8 2b e8 bd 2e 34 e2 bc 20 87 59 bd
       0.030890131 -0.113364756 -0.027612772 -0.05310738
000360 bb f8 3c bd 60 66 16 3e cd fc f5 bd 97 53 28 be
       -0.046135645 0.1468749 -0.120111085 -0.16438137
000370 04 8f 1e be 90 f5 04 be 5c 05 37 bd d1 84 af 3d
       -0.15484244 -0.129843 -0.044682845 0.085702546
000380 1e 66 1c bd c7 50 7e 3d 7e 68 1c bd c2 e4 03 bd
       -0.038183324 0.062088754 -0.03818559 -0.032200582
000390 7d e4 82 3c f1 fb 62 be b3 72 9d 3c f8 90 c5 bd
       0.015978092 -0.2216642 0.019219732 -0.09646791
0003a0 4d 91 34 3d 6d 3b 93 3d a3 fa 11 3e 7b a3 da 3d
       0.044083882 0.07189069 0.14255767 0.10675713
0003b0 14 53 b2 3d 82 5c af bd ca 1e 80 be fd 16 45 3c
       0.08707252 -0.08562566 -0.2502349 0.012029407
0003c0 48 9a fa 3d cf a7 58 be 9d 7e a0 bb 7c d4 14 3d
       0.12236458 -0.21157764 -0.004897906 0.036335453
0003d0 c0 fd 8b 3d eb 38 aa bd 7a 35 43 3e 9b b0 30 3c
       0.06835508 -0.083116375 0.19063368 0.0107842935
0003e0 8d c5 c5 3d 59 6c f6 3c 1a 4d 84 bd 30 a1 e9 bd
       0.096568204 0.030080961 -0.064600185 -0.11407697
0003f0 57 3d 81 3e bd 56 77 bd 7f 8e 7f bc b2 78 2f 3c
       0.2524211 -0.060385454 -0.015597939 0.010709928

decoder_head_action.0.bias f4 [64]
000000 f7 8e 25 3c 66 cf 41 be 93 78 15 3e d3 71 55 be
       0.010104886 -0.18926772 0.14596777 -0.20844202
000010 8d e8 12 3e 01 f2 cf bd 15 f7 8a be b6 40 47 be
       0.14346524 -0.101535805 -0.27141634 -0.19458279
000020 bc 7a d0 bd 7f 22 07 3e db 6d 5c 3e 3a 1a 22 bc
       -0.1017966 0.13196753 0.21526282 -0.009893948
000030 c6 21 c9 3d 7c cd 96 3d 22 dd 07 bd 32 be 06 3e
       0.09820895 0.07363412 -0.033169873 0.13158491
000040 8d 3b 8e bc b3 65 0d be 89 fb 11 3e 14 85 77 bc
       -0.01736238 -0.13808326 0.1425611 -0.015107412
000050 6d f3 08 be 78 b3 04 3e d2 5c 22 bc 5d 12 30 3d
       -0.1337411 0.12959087 -0.009909825 0.042986263
000060 11 bd b7 3d 86 63 ab 3d 79 c8 cd 3d ab 24 0f be
       0.089716084 0.08368592 0.10048003 -0.13978831
000070 e2 93 f2 bc 43 a7 00 3e 26 35 45 be 89 4e 36 be
       -0.029611532 0.12563805 -0.19258556 -0.17803396
000080 81 f5 2e be 95 85 6e bd 9b 79 0d 3e 4b 3b a8 3b
       -0.1708584 -0.058232863 0.1381592 0.0051340214
000090 ec ad 4a bc fb 4a e2 bc 3c 39 d1 3d 5e 23 b2 3c
       -0.012370568 -0.027623644 0.10215995 0.02174538
0000a0 7c 58 4b bd ae 1c c1 bc 7e 7b 3b 3e dd 4b 9f bc
       -0.049644932 -0.023573246 0.18308827 -0.019445354
0000b0 5e 9a 84 be 68 0f 20 3d 66 51 84 b9 27 95 e4 bd
       -0.25899023 0.039077193 -0.00025237649 -0.11161261
0000c0 37 50 46 be 08 a5 5c bd 08 7a 31 be 23 e4 6f be
       -0.19366537 -0.053868324 -0.17331707 -0.23426871
0000d0 26 3c 9e bd d3 34 1c bd 88 18 46 be 5f 06 25 3d
       -0.07726316 -0.038136315 -0.19345295 0.04028928
0000e0 2a 16 52 be df b9 e3 3d 58 a2 95 be 3d a1 a5 bc
       -0.20516267 0.111194365 -0.2922542 -0.020218486
0000f0 fd eb 16 be d1 c0 7e be ac 93 98 be c8 8c 8c be
       -0.1473846 -0.24878241 -0.29800165 -0.27451158

decoder_head_action.2.weight f4 [2, 64]
000000 cc a5 b5 3c 5f c9 b8 3c d7 29 a9 3d d4 95 74 bc
       0.022173785 0.022556959 0.082599334 -0.0149283
000010 18 ed 65 3d 24 5f 21 bc 95 82 38 bb 58 bd c9 b9
       0.056134313 -0.009849343 -0.0028154005 -0.0003847878
000020 b5 3a 98 3d 89 a8 45 3d 86 8e 0e ba 72 58 5d bc
       0.074330725 0.04825643 -0.0005438108 -0.013509857
000030 71 b8 cf 3d a7 9d 84 3d 8c 83 a6 3c 75 ee 90 3d
       0.10142601 0.06475382 0.020326398 0.07076732
000040 7a 68 b8 3c de 69 56 bb 35 84 e6 3c 90 ae a4 bc
       0.022510756 -0.003271691 0.028139213 -0.02010277
000050 80 3e 7d 3b b2 bd 5d 3d 8e 06 07 3c f2 bb 06 3d
       0.003864199 0.054135986 0.008241309 0.032894082
000060 84 00 cd 3d 48 78 c0 3d 97 34 91 3d cb 80 89 bc
       0.10009864 0.09397942 0.07090109 -0.016785046
000070 5a c5 6e 3d 6d b9 94 3d e7 48 5c bc cf 71 66 bb
       0.058293678 0.0726193 -0.013445116 -0.003516305
000080 ad 8d bb bc b1 73 54 3d 8b 9f bf 3c 51 d3 17 ba
       -0.022894705 0.051868144 0.023391506 -0.00057916815
000090 63 c9 03 3e 79 7a a6 3d c3 0c ca bb 3a 72 04 3e
       0.12869792 0.081288286 -0.006166072 0.12934199
0000a0 78 2e 2b bc e4 a2 a7 3c 2d 47 07 3d 8d e7 15 3d
       -0.010448091 0.020463414 0.033026863 0.036597777
0000b0 71 07 91 3d a4 7e ca 3d 21 9e 72 3d 12 fc 8a 3d
       0.070814975 0.09887436 0.059232835 0.0678636
0000c0 d0 54 3b bd 3c 6c 42 3d 0b f9 2c 3d 49 df 0a bd
       -0.04573518 0.0474665 0.042229693 -0.033904348
0000d0 c6 16 93 bd 56 7f 12 be 42 8e 49 bb 50 f1 94 3d
       -0.07182078 -0.14306387 -0.0030754958 0.07272589
0000e0 84 d6 37 bc 2c 58 bd 3c c3 a4 c0 3c eb 79 a5 3d
       -0.011220578 0.023113333 0.023516065 0.08079895
0000f0 41 e7 38 bc c1 a6 7f bd 4e a4 cc bc e5 51 93 bd
       -0.011285604 -0.06241489 -0.02498069 -0.071933545
000100 0f 33 66 ba e9 f0 8d 3d 25 6a 93 3b d0 18 81 bd
       -0.0008781412 0.069307156 0.0044987374 -0.06303561
000110 86 53 ab bc bb c1 5e 3c 89 29 f7 bd 86 1a 0f bb
       -0.02091385 0.013595994 -0.12068469 -0.0021835878
000120 a2 44 10 bd a2 86 cf bd cb 1e ee bd 39 79 25 bd
       -0.035221703 -0.10133101 -0.11626967 -0.04039881
000130 73 97 0b bd 01 73 73 bd cc 2a 96 bd ea cb 95 bd
       -0.03407998 -0.05943585 -0.073323816 -0.07314284
000140 73 1b cb bc 23 5d f8 bc 4e 8c 2d be 78 b6 00 bd
       -0.024793362 -0.030317849 -0.16948053 -0.031424016
000150 8b 9c cf 3c 74 06 07 bc 0a 05 03 bd 0f a4 f5 3b
       0.0253432 -0.008241285 -0.031987227 0.007496364
000160 3f 78 3d 3b 85 bd 42 3d 17 10 08 3d a6 94 45 bc
       0.0028910784 0.04754402 0.03321847 -0.012059366
000170 3d 3f 29 3d 86 7b c8 bc 32 0f 5b 3d 15 6d fd bc
       0.041320074 -0.024472963 0.05348129 -0.030935803
000180 2c 39 b4 bc 03 d3 79 3b fe e2 d8 bd 25 86 90 bb
       -0.021999918 0.0038120158 -0.1059017 -0.0044105225
000190 f8 ad 0a be 3e 06 35 be 79 d3 12 bd c4 86 85 bc
       -0.13542926 -0.17678162 -0.035846207 -0.016299613
0001a0 11 00 43 3c c1 c4 15 bd f0 d3 ad bc 30 73 bb 3c
       0.011901871 -0.036564592 -0.021219224 0.022882074
0001b0 a5 28 94 3b cb 08 0c 3d 35 37 1a bd 1b 80 fd bd
       0.004521447 0.034188073 -0.037650306 -0.1237795
0001c0 6b af 2a be 22 23 90 bd 0d 2f 4d 3e a0 9f 26 3d
       -0.16668479 -0.07037951 0.2003748 0.040679574
0001d0 21 9b c6 bc 5c 8f 97 3d 97 1b 20 bd de 7d f3 bd
       -0.024243893 0.074003905 -0.03908881 -0.11889242
0001e0 f7 0d 28 3b 8a 48 b9 bd f6 b4 1a 3e c7 a6 27 be
       0.002564309 -0.09047039 0.15108094 -0.16372214
0001f0 af 02 24 bd af 3f 24 3e fb 1d 42 3d 25 50 0c 3d
       -0.04004162 0.16039918 0.047391873 0.03425612

decoder_head_action.2.bias f4 [2]
000000 25 e7 38 3d 54 5d 0e 3d
       0.04514231 0.034756973

encoder_lstm_cell.weight_ih f4 [256, 64]
000000 b1 48 c5 bd bf 61 13 3c e0 b0 01 be 9d 60 25 3e
       -0.096330054 0.008995472 -0.12665129 0.16150136
000010 41 5f 41 bc b8 fa 5a bc 13 29 ea 3d f1 2b fb 3d
       -0.011802495 -0.01336544 0.114336155 0.122642405
000020 ef b4 16 be f9 bd 33 bd 06 e5 54 bd 88 1f 05 be
       -0.14717458 -0.043882344 -0.051976226 -0.1300031
000030 50 89 b8 bd 74 dc 60 bb 59 b9 c0 3d bd f1 c4 bd
       -0.09010565 -0.0034311088 0.09410352 -0.096164204
000040 f2 69 c3 3d 2e 31 f2 bc 1d 97 ab 3d 04 5e e1 bc
       0.09541692 -0.029564466 0.08378432 -0.02751065
000050 4b b8 01 3e 90 ae 1a 3e df 6d a5 3d a4 05 ec 3c
       0.12667958 0.15105653 0.08077597 0.028811283
000060 5e 91 d6 bd 97 60 a8 bd 3f c2 b3 bd 97 93 e1 3d
       -0.10476945 -0.08221548 -0.08777284 0.11014479
000070 76 6a 87 bc 11 b4 b6 bc d4 48 5f bc 9b 9e 2c 3e
       -0.016530257 -0.02230266 -0.013628203 0.16857378
000080 0e 19 a2 bd de d4 69 bd a6 55 f5 bc cf 0c b6 3d
       -0.07914935 -0.05708777 -0.029948067 0.08889162
000090 be 17 72 3d f0 42 16 be 36 b3 d4 bb 27 09 fd 3d
       0.059104674 -0.14673972 -0.00649109 0.12355261
0000a0 12 89 db 3d 24 e2 04 3e 4a 6e 32 3d bc cc 57 bd
       0.107195035 0.12976891 0.04356221 -0.052685484
0000b0 fd f9 e6 bd 14 64 44 3d 0f d6 63 be 79 2b e5 3d
       -0.1127815 0.047947004 -0.22249626 0.111899324
0000c0 e0 be 97 3c a2 33 43 3d 91 0c fe bd 74 30 98 3d
       0.018523633 0.047656663 -0.124047406 0.07431117
0000d0 fb 88 dc bc c7 5f 89 3d 2d f1 bd 3d 26 d5 05 bd
       -0.026920786 0.06707721 0.09274516 -0.032673977
0000e0 37 70 c8 bc d8 eb 12 be e9 48 39 bd 51 4e c0 bd
       -0.02446757 -0.1434778 -0.04523555 -0.09389938
0000f0 cd 50 b4 3d 4e ab b0 bd 37 42 d7 bd 9e 28 97 bd
       0.08804474 -0.08626424 -0.10510676 -0.07380794
000100 9d c3 69 3d 5b 96 ee bc 7b dc 29 3d e9 0c 3e be
       0.057071317 -0.02912443 0.041470032 -0.18559612
000110 5c 7d 61 be 58 ea 12 3e 6a 9f c9 bd f5 e3 1c be
       -0.22020477 0.14347208 -0.09844859 -0.15321334
000120 39 24 8b 3d 8a bc cc bd d2 81 c6 bc 0c 17 00 bd
       0.06794018 -0.099968985 -0.024231825 -0.03127198
000130 69 86 55 be 19 45 eb 3a b7 9b 7d 3d 68 20 0d be
       -0.20852055 0.001794967 0.06191608 -0.13781893
000140 fa b1 3c be b2 06 0a be 00 69 65 3c b3 52 21 bb
       -0.18427268 -0.13479117 0.014002085 -0.0024615943
000150 a0 8a b4 bd 03 ec a6 3d 6a 4b 6d 3d b1 c9 14 3e
       -0.08815503 0.081504844 0.05793325 0.14530064
000160 40 00 38 bd 07 03 54 3d 1a b5 c5 bc 77 bb 1f 3e
       -0.044922113 0.0517607 -0.024134208 0.15598856
000170 0c f6 07 bd 23 2c b8 3d fd 79 9a 3d 7c 3b 11 3e
       -0.033193633 0.089927934 0.07542799 0.14182848
000180 20 06 0b 3d d7 2d 3b bd 14 f0 65 be 5f a1 ac bc
       0.033941388 -0.045698013 -0.22454864 -0.021073041
000190 0a e9 17 3d 58 b1 b5 bd f3 6a 25 3e 48 14 db 3c
       0.037087478 -0.08871716 0.16154079 0.02674307
0001a0 54 40 47 be 2d 12 6e be b7 ce d6 3d 9a bd 12 3d
       -0.19458133 -0.23249121 0.104886465 0.03582535
0001b0 c1 18 37 be 0c a1 02 be b5 a9 c4 bd 87 8e d8 bd
       -0.17880537 -0.12756747 -0.096026815 -0.1057406
0001c0 4b 38 74 3d fb 12 1c be 75 cd 38 bd 62 65 e4 3c
       0.059623998 -0.15241615 -0.045117814 0.027880374
0001d0 82 7a c7 bc fd b4 9e bc d1 66 56 3d 5e 2c 19 be
       -0.024350408 -0.019373411 0.052344147 -0.14958331
0001e0 e2 41 9b 3d cf 6d d4 bc 73 b2 45 bd 3d aa f1 3c
       0.075809255 -0.025931267 -0.048265886 0.029500121
0001f0 65 29 12 be 9d ad 04 be 61 99 6b 3d 86 06 c3 3d
       -0.14273603 -0.12956853 0.05751932 0.095227286
000200 e7 3f c1 bd 83 29 b0 bd 08 6c 22 3e 77 ad 9c bd
       -0.094360165 -0.08601668 0.15861523 -0.07650273
000210 fe 57 90 3d d6 2d 1e 3e 3b b1 5f 3c 6b d9 87 be
       0.07048033 0.15447173 0.013653095 -0.26533064
000220 65 25 94 3e bc c6 a1 bd c1 d9 00 3e 45 3a 64 bd
       0.2893478 -0.07899234 0.12583067 -0.055719633
000230 c7 d6 e7 3d 95 24 59 3e 88 07 70 be 28 8b 46 3c
       0.113202624 0.21205361 -0.23440373 0.012118138
000240 ca 38 01 3e 0a ad 12 be 02 de 00 3e 0a 16 3f bd
       0.1261932 -0.14323822 0.1258469 -0.046651877
000250 d0 85 25 3e 11 5d 1f be f8 db b0 3d 23 0f 07 3e
       0.16164327 -0.15562846 0.08635706 0.13189368
000260 24 60 0d 3e 06 91 58 3e 37 c8 3a 3e f3 52 e3 bd
       0.13806206 0.21149072 0.18240438 -0.11099806
000270 f9 01 09 bc 69 e4 a1 3e 22 08 e7 3c 4d 41 6b 3e
       -0.008362287 0.31619576 0.02820212 0.22974129
000280 8c 33 09 be 37 7c f9 3d 2e 5b 81 be ed 5b 10 be
       -0.1339857 0.12181895 -0.25264877 -0.14097567
000290 4c 01 8e be a2 70 76 3e d6 0c fe 3d 77 b9 49 be
       -0.27735364 0.24066404 0.12404792 -0.19699655
0002a0 9f 9e 1c be 92 a4 92 3d 20 18 19 3e 27 79 18 3e
       -0.15294884 0.071602955 0.14950609 0.14889966
0002b0 d1 9f 05 3e 23 7c 21 3e 1e fd 05 3e ea 43 33 3e
       0.13049246 0.1577001 0.13084838 0.17506376
0002c0 bb ba c3 bd 94 21 ef 3d 89 f8 42 3d 3f 7d f8 bd
       -0.095571004 0.116763264 0.047600303 -0.12133264
0002d0 a1 dd 00 be 50 52 22 be 5e bc c0 3d 47 59 80 3c
       -0.12584545 -0.15851712 0.09410928 0.01566757
0002e0 a6 8d 13 be b7 fa 8b 3e af 69 82 be 0a e8 e1 3d
       -0.14409503 0.27339718 -0.25471255 0.11030586
0002f0 a7 d8 2e 3e 8b 40 7b be 92 82 18 be eb 14 a2 bd
       0.17074834 -0.2453634 -0.14893559 -0.07914146
000300 0b b1 68 3d 6a bb c3 bc b5 29 c6 3c 70 e0 da bd
       0.056809466 -0.023893077 0.02418981 -0.10687339
000310 79 5c 30 be a2 cb 0a 3a 78 24 a0 bd 64 51 18 3e
       -0.17222776 0.0005294626 -0.07819456 0.14874798
000320 16 85 dc 3b 6a 46 05 3e ee b2 cd 3d 4d 44 ac 3d
       0.0067297323 0.13015142 0.10043894 0.08411465
000330 fa 51 07 bd 92 f8 dd bd 27 06 14 bd 4c 06 07 be
       -0.033037163 -0.10838427 -0.03613868 -0.13185996
000340 51 55 b5 3d 06 a9 d1 3c 9c 88 e2 bd 39 ce a6 be
       0.088541634 0.025593292 -0.110612124 -0.3257921
000350 4d b9 30 be 9e 12 7f bd 49 6a ad bd a1 89 bb bd
       -0.17258187 -0.062273614 -0.08467538 -0.0915711
000360 fe de 87 3c 9a ec 82 bd 97 35 00 3e 07 e8 9c 3d
       0.016585823 -0.063927844 0.12520443 0.07661443
000370 25 7f 68 be a8 bc 54 bd ce e9 47 3d f2 31 80 bd
       -0.22704752 -0.05193773 0.048806958 -0.06259526
000380 e0 3b 41 be e7 74 a9 3a a5 25 8d be 45 c7 7e bd
       -0.18870497 0.0012928516 -0.27567783 -0.062201757
000390 87 77 8b bc a0 42 23 3d 78 2d fb 3d 84 a1 e9 bd
       -0.017024769 0.03985846 0.12264532 -0.1140776
0003a0 8e bc 48 be de f4 08 bd 42 2e d5 3d 6f d9 06 3d
       -0.19603178 -0.03343665 0.104092136 0.032922205
0003b0 46 3c be bd a1 40 a6 3d ea 25 9d 3d 53 76 ba bd
       -0.0928884 0.08117796 0.07673247 -0.091046
0003c0 04 df ed 3d 4f f4 2a bd d5 34 0a be 49 70 c8 3d
       0.116148025 -0.041736897 -0.13496716 0.09787042
0003d0 86 84 d4 3d 1a fc 6a bb 4b e8 d8 3d 46 c0 e5 bd
       0.10376839 -0.003585583 0.10591181 -0.11218314
0003e0 f6 69 a3 3d 6d 71 1f 3d 9d 69 71 3d 61 43 39 3e
       0.07979195 0.03892653 0.05893861 0.1809211
0003f0 6e f2 21 bd 9a a9 f1 3d ab e5 7c 3d ab 6a 14 bd
       -0.03953784 0.11799927 0.061742466 -0.03623454
